checkpoint.pth (torch_old, 45539 bytes, 8 tensors)

hidden_layers.0.weight f4 [64, 37]
00000000: ab9f 90bd 138e fa3d 68f0 93bd 2c65 2bbd
00000010: 31fa cabd 4543 fd3b f98c 07bd 104b 8e3d
00000020: 07d7 1cbc 61c8 12be 9fd9 88be 6846 623b
00000030: 3bc4 62bd 6d94 4c3d ac5f 8bbd cfb3 efbc
00000040: 7859 673d 21bf 0bbd 7130 3fbd c822 b3be
00000050: e815 7cbd 9795 fb3d bafd 143e 607b 203e
00000060: 1b5b 9f3d d140 4fbe 6293 703e 5ef2 2bbe
00000070: 0d6e b5bd a9f3 93be 6719 3dbe f28a 543e
00000080: 6e36 07be e071 4f3d 393b 38be 9f18 f43c
00000090: 33e3 30bd d36b f63c 4020 c53d a8ee cdbb
000000a0: afbc 1fbd 7760 30be b5ba 00be 025e adbd
000000b0: 6f88 0cbe 5752 ff3d 3762 f53e 9bd7 2f3d
000000c0: 68d4 97bd 10eb a4bd 066a c83d 9c78 b13e
000000d0: 396a 023c c644 dd3b be97 463c 5e7e eebd
000000e0: 0823 08be 819f 46be f326 4fbe c9a8 0dbe
000000f0: 4205 2e3e 154c d43e 2a0d 14be b461 16be
00000100: 5aac 3b3c ade5 9f3d 8329 343e 516a 93be
00000110: e757 343e 8f5d 533e 5f7d 583e 7520 ff3d
00000120: 7812 23bd eef2 3dba ea6e ed3d 8a59 52be
00000130: 3995 423e a761 61be 4406 1fbe 9749 f8be
00000140: 881c 82be 2beb 233e 9c78 4b3e c071 89be
00000150: e0ba f93d 97d5 6dbe b4a6 1bbe c25b 9fba
00000160: cbed 7ebe 4331 28be e2aa 013e cf85 c9bd
00000170: 79eb 003e c7c7 013e aff7 aebe 260e 32bd
00000180: da06 ab3d 6943 15be c543 10bc 6d85 9abd
00000190: f95b e83d 8d4a 09bd 6558 20bd 46ce aabd
000001a0: a4ec 29be 7b4d 82bd 373d eebd 5d21 bcbe
000001b0: c6c1 63be 0335 89bd e955 bcbd 9165 7e3c
000001c0: 9f11 a6bd 8c58 673e d3a0 633d b603 14bf
000001d0: c364 c1bd 4462 d83c 56ac 4e3d 4c86 323e
000001e0: 9df3 b1bd 6102 a73d 1b7d 583c 5b17 79bd
000001f0: e4a2 b3be f43c 18be 24aa a3bd a6b8 b8bd
00000200: dfb4 933c 1fb0 36be 3580 dbbe 2aca 1cbe
00000210: b7f8 59bd a50e 98bd 9384 333e 8264 b4be
00000220: 0523 69be ae38 5c3d c407 2d3e 1ae3 623e
00000230: 514c 49be ccb1 ab3b a128 2b3e d0f0 e73d
00000240: 55f7 97be 9473 b1be 449a 413e 9d3c f838
00000250: 1157 86be e836 13be 3eef c8bd 9ea8 f3bd
00000260: fe25 163e 5e0d 3bbc 1dd1 bf3c dea9 9ebd
00000270: 2454 0a3e d4a2 b93e e111 e7bd cfa7 c3bd
00000280: ab32 3cbd 18bf 16bd 4a79 c73d 6dbc 74be
00000290: b16f 7cbd 636b e7bd 3868 0a3e 0e75 9d3e
000002a0: 8b04 52be 90af 99bd ae43 b2ba a404 2f3e
000002b0: 77da b23e 899b efbd 2aaa 10be ce43 8b3d
000002c0: 4141 713e 4771 d53e 4706 b4bd 586d a9bd
000002d0: 4e86 98bc 975d 7f3e 3da4 1e3f 6c7b 5abd
000002e0: 7fb6 23bc 6ace 4d3c c13f f5bc 3b89 8d3b
000002f0: 8ccc 8f3d fae8 613d 26b2 b73e f2be 65be
00000300: 493f fabe 1b2b f2be f982 f3bf cc94 69bd
00000310: 7cab 78bd 1f8b e23b 954b 18bd d1fb db3d
00000320: 7021 e23c a545 6abc 5919 17bd 809d a8bd
00000330: 86f9 31bd 9c60 963d e597 dd3d 8449 d63d
00000340: 9fb5 093e c5b6 fd3d a6e9 ec3c fe82 ad3c
00000350: 824b ce3c 3ac5 94bd 7cd8 afbd 7d1a 66bc
00000360: 79b8 bf3c 0cb9 ccbc 8e42 83bd 5176 7bbe
00000370: 4cc3 62ba 84f4 3f3b 5123 bb3d dc55 6bbd
00000380: d693 973c 0765 043d 3cb0 883c b5aa 3ebe
00000390: 49f9 e8bc a69f debc e7ff a1ba beed c63d
000003a0: de69 8a3c 5256 b73d bade 143e ee71 aa3b
000003b0: 50b4 483d 5dc4 14bd aaab 2cbe 314c 15bd
000003c0: f165 1a3e 104e b53e bfab b7bd 94f8 83bc
000003d0: 0167 033e 6ef3 083c 3cd1 d13e ca31 c2bd
000003e0: e063 26be b2c3 e3bc 7a3a 463c 0ccd 3c3e
000003f0: d866 e4bd 36ce 32bd d10f 643d 7104 003e
-0.07061704 0.1223413 -0.07223588 -0.041844532 -0.099110015 0.0077289664 -0.033093426 0.06947911
-0.009572751 -0.14334251 -0.26728532 0.0034526829 -0.05536292 0.049946237 -0.06805357 -0.029260544
0.05648181 -0.03411782 -0.046677057 -0.34987473 -0.06154433 0.122843914 0.14549914 0.15672064
0.07781049 -0.20239569 0.23493722 -0.16791674 -0.08858881 -0.28896835 -0.18466721 0.20756128
-0.13204357 0.05064571 -0.17991342 0.029796897 -0.043185424 0.030080711 0.09625292 -0.0062845536
-0.038998302 -0.17224298 -0.12571223 -0.08465196 -0.1372392 0.12466877 0.47926494 0.042930227
-0.0741356 -0.08052647 0.09785847 0.3466233 0.007959896 0.006752583 0.012121139 -0.116451964
-0.13294613 -0.19396783 -0.20229702 -0.13833918 0.16994193 0.41464296 -0.14458147 -0.14685708
0.011454666 0.07807479 0.1759396 -0.2879205 0.17611657 0.20641159 0.21141575 0.124573626
-0.039812535 -0.0007245977 0.11593421 -0.20541969 0.19002236 -0.22009908 -0.15529734 -0.48493645
-0.25412393 0.16007678 0.19870228 -0.26844597 0.12193847 -0.2322601 -0.15200311 -0.0012158083
-0.24895398 -0.16425042 0.12662843 -0.09839975 0.12589826 0.12673865 -0.34173343 -0.043470524
0.08350916 -0.14576496 -0.00880522 -0.0754498 0.113456674 -0.033518363 -0.0391468 -0.08340125
-0.16594177 -0.063624345 -0.116327696 -0.36744204 -0.22241887 -0.06699564 -0.091960736 0.015527145
-0.0810883 0.22592372 0.055573296 -0.5781816 -0.09443047 0.026414044 0.05045732 0.17434043
-0.08689044 0.081547506 0.013213421 -0.06081329 -0.35085213 -0.14867002 -0.07991436 -0.09019594
0.018030582 -0.17840622 -0.42871252 -0.15311494 -0.05321571 -0.07424668 0.17531042 -0.3523293
-0.22767265 0.05376499 0.16897494 0.22156945 -0.19658019 0.005239701 0.16714717 0.11325228
-0.29680887 -0.34658492 0.18906504 0.000118368516 -0.262383 -0.14376414 -0.09811257 -0.118973956
0.1466293 -0.011416761 0.023415143 -0.07747243 0.1350866 0.3625704 -0.11282707 -0.09553491
-0.04594676 -0.036803335 0.09739931 -0.23900004 -0.061629955 -0.11299779 0.13516319 0.30753368
-0.20509546 -0.07504189 -0.0013600492 0.17091614 0.349323 -0.11699588 -0.14127412 0.06800042
0.23560049 0.41687986 -0.0879026 -0.08272809 -0.018618729 0.24938045 0.6196936 -0.05334036
-0.009992241 0.01256142 -0.029937627 0.0043193377 0.07021436 0.055153824 0.35878104 -0.22436121
-0.48876408 -0.47298512 -1.9024345 -0.05702667 -0.060710415 0.006913557 -0.037181456 0.107413895
0.027603835 -0.014298831 -0.036889408 -0.08233166 -0.043450855 0.073426455 0.10819987 0.10463241
0.13448189 0.12388376 0.028920006 0.021180626 0.02518249 -0.072641805 -0.08586213 -0.014044401
0.023403393 -0.024990581 -0.06409179 -0.24556853 -0.00086503173 0.002929003 0.091375954 -0.05745493
0.01850311 0.03232291 0.016685598 -0.18619807 -0.02843918 -0.027175736 -0.001235959 0.097133145
0.016896185 0.08952011 0.14538088 0.0052015698 0.049000084 -0.03632008 -0.1686236 -0.036449615
0.1507795 0.3541112 -0.08968305 -0.016109742 0.12832262 0.008358819 0.40979946 -0.09482153
-0.16249037 -0.027803276 0.012098903 0.18437594 -0.111524284 -0.04365369 0.055679146 0.12501694

hidden_layers.0.bias f4 [64]
00000000: 2d9f 9e3d 8643 17be 34a3 44be 7b12 3cbd
00000010: d70d f13c 9d67 2d3d 039c c9bd 037c d53d
00000020: eaa5 5c3c cc9b 90be 99d7 fe3d 448d 073e
00000030: 6ebc bf3d bad5 463d 6a46 21be e13d c7bd
00000040: 1851 0cbd eb61 29be 08ff 10bd f15a 70be
00000050: 6b87 68be 7da6 cc3d 486a 10bc ff6d 3dbd
00000060: e40a 82bd 8c7e 01bd bc04 10be 62d3 11be
00000070: 34b6 083e 3a77 813d 78d5 84bd b744 3abe
00000080: 8b65 1b3e 1eed f5bd fca8 f9bd 7f1e ca3d
00000090: ab0c 13be 60c1 26bb 146a 96bd 86fd e8bd
000000a0: ea06 5fbe 916b 1c3d e920 38be 824e ac3d
000000b0: f679 0bbe 7b52 5dbe e9fa d9bc 16a8 35be
000000c0: 1b00 91be 3b13 ba3d 78d3 8ebe 7ecb b13d
000000d0: 532e 303d 26aa 0f3d 82d3 7ebe f661 bebd
000000e0: db5d 9a3d 4267 f9bd 9d49 5cbe 9f03 49be
000000f0: b2f5 d6bd 021d 413d b1ce 87bb a895 e43c
0.07745204 -0.14771852 -0.19202882 -0.04591606 0.029425545 0.04233514 -0.0984421 0.10424044
0.013467291 -0.28243864 0.12443466 0.13237482 0.09362112 0.04854367 -0.15749517 -0.09728599
-0.034257025 -0.16541259 -0.035399467 -0.23472191 -0.22707908 0.099926926 -0.008814402 -0.04624748
-0.063497335 -0.031614825 -0.14064306 -0.14240792 0.13350755 0.06321569 -0.064860284 -0.18190275
0.15175454 -0.12008117 -0.12190434 0.09869098 -0.14360301 -0.002544485 -0.073444515 -0.11376481
-0.21779981 0.03818852 -0.17981304 0.08413412 -0.13620743 -0.21613495 -0.026608901 -0.17739901
-0.28320393 0.09085699 -0.27895713 0.08681391 0.04301293 0.035074376 -0.24885371 -0.09296028
0.07537433 -0.12177898 -0.21512456 -0.19630288 -0.104960814 0.047146805 -0.0041445126 0.027903393

hidden_layers.1.weight f4 [64, 64]
00000000: 6c80 17bd 1cf7 85bc 9d2f be3d 6513 fb3c
00000010: 4623 763d 6498 27bd ba10 d3bd 8648 64bd
00000020: 9cd1 1cbd 7c88 283d ccd3 1cbd 6720 d9bd
00000030: c4f7 1cbe 63f3 a63d c849 29bc ac81 94bd
00000040: 2520 3fbc c9ef 72bd e6fe 6fbc 2f50 01bb
00000050: f8d2 a0bd de6b a43c a701 823d 99c5 6fbe
00000060: 0e2a c5bd e86b dfbc 9cd1 173d 9326 033d
00000070: 0a56 55ba 50c1 d6bc eb02 d53d 918b 06be
00000080: 4c00 903d 8de5 e93c b993 2cbc 2505 9c3c
00000090: 1e8e 06be 4357 db3d e7cb 06be d79e 12be
000000a0: f70a 23be 12a5 9ebc d450 253d 5dcd fdbd
000000b0: f31a 2f3d 7f69 94bd 8442 3cbe 0cde 813d
000000c0: a9e6 0cbe 41e4 c1bd 76b4 eebd f746 2fbd
000000d0: 0028 a8bd b39b c7bd 182c ff3c 7bb3 d1bd
000000e0: 1f30 06be 2646 abbc 1e2d 15be 5669 15bd
000000f0: 937c e33c 740b c23d 6aba 05be a186 d7bc
00000100: db8e 183d e29f aa3d a716 20be 5b03 c4bd
00000110: 87af fcbd 1213 5e3d ff8f fcbd bbf9 d83d
00000120: 00e9 6fbd bc1b 8ebd 6bf6 0ebd e90b 153d
00000130: 7f0d e6bd 4603 803d cf59 f2bc a42b 0d3d
00000140: 82e3 883d 27db 453c f330 52be 6579 05be
00000150: 2a58 dabd de6c 5ebe 0b9b 453c 636c 8ebd
00000160: 93e5 7bbd 5513 e2bd 8298 5bbd 2481 21be
00000170: 916f f9bc 1124 79be 1c33 703d a20a f8bd
00000180: cfdc 7fbd 1a73 4e3d 615a 4c3d 1d36 7dbd
00000190: f8ea ba3c 85c6 f33c e408 703d f9aa 30be
000001a0: a433 abbd c97d fe3c d370 f5bd ae13 f4bd
000001b0: ba6d 6ebe 9e99 d9bd f22a 7dbe 864d d6bd
000001c0: 416c 8abe 132e 89be 5bc8 1fbd 8263 0a3c
000001d0: 4d0d a5bd bca1 93bb f580 20bc 8b4b dbbd
000001e0: d2d7 dfbd e139 a03c d5d7 ee3d f54a a63d
000001f0: f9c1 7ebe 1dd0 54bd a66e a9bb 987d 61bd
00000200: ed7a 44be 9706 f8bd 3b0d 6b3d 3cde 74be
00000210: 6bba ff3b 393b 36bc f132 07be 2547 04bd
00000220: df13 d03d 97a8 0fbe 580a a83b 1051 babc
00000230: aa92 98bd 1747 2abe da17 b0bd 75a9 0dbd
00000240: f4a8 4dbe 4dab 0a3d 06ce 2d3d d097 fabc
00000250: 665e d9bd 26da d03d e9ed cabc 76e5 e3bd
00000260: 558e 18bd c588 a8bd bb96 12bd 2ed2 3f3d
00000270: 8fa2 09be d351 14bd 0f3f 123c 4b75 03bd
00000280: 549d fbbd ac92 73be 8826 5cbe 1f61 02bd
00000290: 55b9 f83c 99b0 b5bd 7ef7 6dbc 6476 9dbd
000002a0: 0124 583c c3f5 3cbe c53d e0bd fe4a 1dbe
000002b0: fe1a 0fbc 7ef3 0abd ced1 453d 018b d6bd
000002c0: cb71 11be 3256 57be 7931 01be 8748 cf3c
000002d0: 497d d9bd 8503 663d ec7b 84be 0d4b d4bd
000002e0: dca2 a1bd cbef 0ebe f48a 623d f763 93ba
000002f0: d9ee 02be de64 a3bc 9347 013e eb79 acbd
00000300: 1ee3 a33c 6e94 85bc d287 bd3d 8efa 48be
00000310: 86fb 30bd f786 0e3e 4c92 59bc 1df4 043d
00000320: 6f3c 76bc 5f7f d93b a2c9 573e 55b2 763e
00000330: f278 63bd d5ec 003e 3205 ddbc 10eb 76bd
00000340: d85b 8dbd 17e6 493c 4bb9 febb 64be 533b
00000350: da94 7d3c fa7d 433e edc7 ccbd b709 4a3e
00000360: 8fb9 4e3e 16e3 513b c0ed 72bc f0fd af3e
00000370: 99fc 2d3e 4c9b 7cbe 82b7 8b3c 8387 403d
00000380: b933 91be 2652 48bd d22a 743e f9c5 d83d
00000390: b66f e5bc ec4e 643e 7bdc c13d 9544 f63e
000003a0: d7f8 adbc dd9f 843e c2e4 913d 9a5b 34bc
000003b0: 4c58 acbd bff5 d2bc c760 91bc 6fb4 943c
000003c0: 2d20 3c3d 2594 e73c c9e5 b7bc 9926 093e
000003d0: 9976 7bbe 9e95 353e 292f 39bd d30a 023d
000003e0: f23d 953d 095c a9bd 9c8e 043d e49b 073c
000003f0: 77e0 31bd a02a f7bd f68d d9bd 2e3f 7e3e
-0.036987707 -0.016353182 0.09286425 0.030648896 0.060092233 -0.040916815 -0.10305925 -0.055733226
-0.038285837 0.041145787 -0.038287923 -0.106018834 -0.1532889 0.08151891 -0.010332532 -0.072512954
-0.011665379 -0.05931071 -0.014648175 -0.001973163 -0.07852739 0.020070966 0.063479714 -0.23415221
-0.09627162 -0.027273133 0.037065133 0.03201921 -0.0008138126 -0.026215225 0.10400947 -0.13139178
0.070313066 0.028551841 -0.010533267 0.019045422 -0.13140151 0.10710003 -0.1316372 -0.14318405
-0.15922152 -0.019365821 0.040360287 -0.123926856 0.04275031 -0.07246684 -0.18384749 0.0634118
-0.13759865 -0.09467364 -0.11655514 -0.042792287 -0.082107544 -0.09746494 0.031148955 -0.10239311
-0.13104294 -0.020907473 -0.14567992 -0.03647741 0.027769363 0.09474841 -0.13059393 -0.026309313
0.037245613 0.083312765 -0.15633641 -0.095709525 -0.12338167 0.054217406 -0.123321526 0.10594507
-0.058571815 -0.06938884 -0.03490297 0.03638831 -0.11233043 0.06250624 -0.02958384 0.034465447
0.06684019 0.012076176 -0.20526485 -0.1303459 -0.10661347 -0.21721217 0.012060891 -0.06954267
-0.061498236 -0.110388435 -0.05361224 -0.1577192 -0.030448707 -0.24330164 0.05864249 -0.12111403
-0.06246644 0.05040274 0.04989088 -0.061819185 0.02281712 0.029757747 0.05860223 -0.17252721
-0.08359459 0.031065838 -0.1198441 -0.11917816 -0.23284045 -0.10625003 -0.24723414 -0.10464005
-0.27035716 -0.26792964 -0.039009433 0.008446576 -0.080591775 -0.004505364 -0.009796371 -0.10707768
-0.10929836 0.019558849 0.116622604 0.08119766 -0.24878682 -0.051956285 -0.005170661 -0.055051416
-0.19187517 -0.12110632 0.057385664 -0.239129 0.007804205 -0.011122518 -0.13203026 -0.03229441
0.1016004 -0.14029156 0.005128186 -0.022743732 -0.07449849 -0.16628681 -0.08598299 -0.034585435
-0.20083982 0.03385477 0.042432807 -0.030589968 -0.10613708 0.101978585 -0.024771648 -0.111277506
-0.037245113 -0.08229212 -0.03578828 0.046831302 -0.13440917 -0.036210846 0.008926167 -0.03209428
-0.12285867 -0.2378642 -0.21499074 -0.031830903 0.03036181 -0.08871574 -0.014524339 -0.07688597
0.013192178 -0.18453126 -0.109492816 -0.15360638 -0.008734463 -0.03392362 0.04829579 -0.10475732
-0.14203565 -0.21028975 -0.12616529 0.025303138 -0.10619599 0.0561557 -0.25875795 -0.10365877
-0.07892391 -0.13958661 0.055308297 -0.0011245002 -0.12786426 -0.019945558 0.1262496 -0.084216915
0.020005759 -0.016306128 0.09254421 -0.19626829 -0.04320862 0.13918673 -0.013279509 0.032459367
-0.015029057 0.0066374983 0.2107301 0.24091466 -0.055535264 0.12590344 -0.026980016 -0.060282767
-0.069022834 0.012322924 -0.0077735535 0.0032309527 0.0154773835 0.19091025 -0.0999907 0.19730268
0.20187972 0.0032026223 -0.014827192 0.34373426 0.1699089 -0.24668616 0.017055277 0.047004234
-0.28359774 -0.048906468 0.2384446 0.10584635 -0.02800737 0.22295731 0.094658814 0.480992
-0.02123682 0.25903216 0.0712371 -0.011008168 -0.08415279 -0.025751946 -0.017746342 0.018152444
0.045929123 0.028268883 -0.022448437 0.1339363 -0.2455696 0.17732856 -0.04521099 0.031748604
0.07287206 -0.082695074 0.032362565 0.008276913 -0.043426957 -0.12068677 -0.1062278 0.24828789

hidden_layers.1.bias f4 [64]
00000000: 08f8 ecbd 5b07 21be 7640 c8bd 6169 1b3d
00000010: 3e9f 673d e092 34be 1717 e6bd 097a cf3d
00000020: 7ec2 c03d 6cda 283d 84b0 e83d 7bf9 7d3c
00000030: 2b35 fc3d 9ede 6dbc 855e dcbc 9b00 a43d
00000040: b19d 283d 8e8b ad3a 780b 443d dee7 563d
00000050: 15f5 243d fd58 833d 5845 79bc 874e 11be
00000060: 201d d53a 9366 34be 8947 443e caf6 8dbd
00000070: 0062 f63c 1f84 f03c 26fb 3d3e 22c6 01be
00000080: bbf5 5d3c b0b5 d7bc 09d4 503b cd05 f6bd
00000090: 5107 34be b98d aa3c 70a0 6b3d 19a3 f5bd
000000a0: e315 d6bd 1273 033d 9800 a23d f168 97bd
000000b0: c9b9 cebd 815e 1fbd cac0 9ebd e132 a2bd
000000c0: bebe 0d3e 01f6 62be 23e1 cb3b 7951 b23d
000000d0: 3cb9 6f3c 1e65 b8ba a73d f5bd 49a8 acbd
000000e0: c729 21be fd37 1abd 5045 913d 4bf2 103e
000000f0: e5ca bd3c c095 ba3d 33d9 f03d 0767 ddbb
-0.11570746 -0.15725462 -0.0977792 0.037942294 0.05654835 -0.17634153 -0.11234873 0.10130698
0.094120964 0.04122393 0.11361793 0.015501375 0.123148285 -0.014518408 -0.02690054 0.08007928
0.04116601 0.0013240443 0.0478625 0.05246722 0.04027279 0.064134575 -0.015214287 -0.14190112
0.001625929 -0.17617254 0.19167913 -0.06931837 0.030076027 0.029359875 0.18552837 -0.12673238
0.013547356 -0.026331753 0.0031864664 -0.12012825 -0.17580916 0.020819532 0.057526052 -0.11993999
-0.10453393 0.03209216 0.079102695 -0.07393063 -0.100940295 -0.038908485 -0.07751615 -0.07919861
0.13842294 -0.22164156 0.0062219067 0.08706946 0.014631566 -0.0014068221 -0.1197465 -0.08430535
-0.15738593 -0.03765105 0.070932984 0.14154927 0.023168037 0.09110594 0.117601775 -0.0067566666

hidden_layers.2.weight f4 [64, 64]
00000000: 315e 4dbd dade 543d f57a fe3d 1ec6 f1be
00000010: c8a2 163e af50 8bbd 263e 253e 4eb2 233d
00000020: 818d 98bd f81f adbc 9256 08bf f100 013e
00000030: 6e61 7abd f089 743d c837 8dbc ad0b f33c
00000040: 5669 1f3d 9821 f7bd 202f 12be 0b7d 5f3e
00000050: 03b4 183c 010f 2fbd ecd9 ec3d 6c24 45bd
00000060: 55b0 25bd 7d6e d4bd 292c 2bbe 57b6 84bb
00000070: eb8a e93d 7d38 043d c87d 68be 122a ad3b
00000080: 791b 093e 4a6a 6e3e bed3 ec3d ab09 c2bc
00000090: a7c1 d83d 2db5 6ebe 398d 8abe 9980 0f3e
000000a0: 0a8d 253e 0757 2d3e 363d 0ebe a816 3a3c
000000b0: 3c33 e83d 4d2d db3d 5983 3c3e 1338 583d
000000c0: a2aa 06bc 5823 cc3d 5990 c33d a177 193e
000000d0: b24d 8c3d 2b44 d43c 53a1 6d3d f1d5 82bd
000000e0: cb09 a7bd db5e b33b 1188 123d 6c8d debd
000000f0: 93c1 bbbd 36cc 843d f300 af3c 777e 183e
00000100: e405 a83d 3e9c 79bd ee1d 223e fb4b 28be
00000110: 12c9 403d 2601 113d b7d4 ad3d 4a1e 42bd
00000120: 83fd 49be 49fa bcbb d53f 653c 48d9 d23d
00000130: faf2 27bd b554 143d 7dad 58bd fd85 4b3d
00000140: acf3 b5bd 9d38 73bd 8ce6 62bd 8e6d babc
00000150: 166d f93d 3deb a83d 212a bfbc 25cf 173d
00000160: 786a 26be 0433 0fbe 09a4 863d 81e5 953a
00000170: 14d8 1fbe 8858 6a3d 1851 513c 573f afba
00000180: 8417 a9bd 6964 e6bd d766 253e d486 d0bd
00000190: 4911 303d 4b61 1bbe 3249 833d b0a4 17be
000001a0: f3f2 053d 716d 7cbd 8a93 73bd ce86 713e
000001b0: 9f94 27be 02bf abbd eb46 2cbc 4ff1 afbd
000001c0: e0db 3b3c b67a a1bc 9f90 6fbd d531 52bd
000001d0: bdfa 8b3c 724d ab3c 8675 103b 7874 8fbd
000001e0: c4d3 cabd 8224 90bd 90ed 68bc 5df6 17be
000001f0: 8d2e f1bd 5b4a e8bd db39 08be faf0 a53c
00000200: d059 83bd 432d 2bbc 8de8 5d3d b7ca 1a3e
00000210: 6627 743d 09dd 4d3d 63ba df3c de98 24bd
00000220: fc58 9dbe 816b 79ba ad49 84be f831 9d3d
00000230: f632 f63d ff31 e43d 1b4f debc 74c2 1f3e
00000240: c509 813e 602b 37be 2e29 a9bd 9683 15be
00000250: 6afc 92bc 5210 553e bed0 0abd 16ec 0dbe
00000260: a751 f43c 184f 35be f51e 3ebe aa5c 01bd
00000270: 816d 5b3e 5987 0d3e 27d7 cabd b922 83bd
00000280: 53f1 a43d 0509 35bd 8058 483e 5186 14be
00000290: 02ba 333d a4be 38be 7ea2 1fbe 6c0f 023e
000002a0: 3e99 003e 972f a83d 24ff dc3d 4968 fcbd
000002b0: 004a c03c e232 153e a578 223e eb0c fe3d
000002c0: 3ab0 973c 94cb e9bd d77b afbd 18f7 6c3e
000002d0: db3e 133e 7f16 b83b 2fda ac3c e1bd 8dbe
000002e0: 00ad 59bd a704 003e c4b6 083e 6480 1abe
000002f0: 6478 60bd 188b 0abb 5d6a 74be e90d 3cbd
00000300: 9831 373d f96d b93d 94ed e9bc 183c 08be
00000310: de94 0bbe efb4 f23b b807 9ebd c639 90bc
00000320: a6fe a7bc 93d2 0f3e 18cd ff3c 2087 78bd
00000330: 2291 d53d 6d1f 02bd 00be 723d e960 d0bd
00000340: c9b1 9b3d ccca 97bd 736d 62ba b44c dd3d
00000350: 582d 5d3c 01dc 2a3d 0520 03bd 6cf2 3b3d
00000360: ff86 d23a 67bc c8bd 75e7 01bc ef10 403c
00000370: ef39 453d d4be bb3c bb58 79bd 40fd af3d
00000380: a1ba 94bd 1038 dfbd fcb6 c2bd 6727 313c
00000390: 888c 63bd fd4b 22be d8d3 b0bc f9a1 0dbc
000003a0: 3b89 fcbd 7e18 dcbc a75a 9a3d 242a f7bd
000003b0: 8b97 af3d d2df e4bd fb9e 0abc cc7c 2ebd
000003c0: 714f 47bd b12c 75bd d7bb 8e3d 3b1e 14bd
000003d0: addb 8bbd 06db 4f3d 525c fb3d 0c5a c13d
000003e0: f3ef b2bd 9f46 15be 23ce 08be 6e51 39bd
000003f0: d48d 1abe c03f d4bc 6481 77bd c1e3 eb3c
-0.050138656 0.05197034 0.12425796 -0.47221464 0.14710534 -0.068024985 0.16136989 0.039964966
-0.07448865 -0.021133408 -0.53257096 0.12598015 -0.061128072 0.05970186 -0.017238513 0.029668653
0.038918816 -0.120669544 -0.1427579 0.21825044 0.009320262 -0.04273892 0.11565003 -0.048130438
-0.040451366 -0.103726365 -0.16716065 -0.004050057 0.114034496 0.032280434 -0.22704232 0.005284556
0.13389386 0.23282734 0.11563824 -0.02368625 0.10583811 -0.233113 -0.2706087 0.140139
0.16167083 0.1692773 -0.13890538 0.011357941 0.11337897 0.10702 0.1840948 0.05278785
-0.008219393 0.09967679 0.095490165 0.14987041 0.06850757 0.025911411 0.05801518 -0.06388462
-0.08156165 0.005473954 0.035774294 -0.10866818 -0.09167781 0.06484263 0.021362757 0.14891993
0.082042485 -0.06094002 0.1583173 -0.16435234 0.047066756 0.035401486 0.08487838 -0.047392167
-0.19725613 -0.005767141 0.0139922695 0.10295349 -0.041003205 0.036213595 -0.052899826 0.049688328
-0.08884367 -0.059380163 -0.055395648 -0.022757318 0.121790096 0.08247993 -0.023335518 0.037062783
-0.16251552 -0.13984305 0.06574256 0.0011436195 -0.15609771 0.057213336 0.012775682 -0.0013370317
-0.082564384 -0.112496205 0.16152512 -0.101819664 0.042985234 -0.15173833 0.06410445 -0.14808917
0.032702398 -0.06162781 -0.059466876 0.2358658 -0.16365288 -0.08386041 -0.010514955 -0.08590948
0.0114659965 -0.019711833 -0.05848753 -0.051317055 0.017087335 0.020910952 0.0022042706 -0.070046365
-0.09903672 -0.07038213 -0.014216796 -0.14840074 -0.11776457 -0.11342307 -0.1330332 0.020256508
-0.06413615 -0.010447803 0.054176856 0.15116392 0.059607886 0.050259624 0.027310556 -0.040184848
-0.30731952 -0.00095146155 -0.2583746 0.076755464 0.12021439 0.111423485 -0.02713733 0.15601522
0.25202766 -0.1788764 -0.082598075 -0.14600977 -0.017942626 0.20807007 -0.03389048 -0.13859591
0.029824091 -0.17705953 -0.18566497 -0.031582512 0.21428491 0.13821162 -0.09904318 -0.06403107
0.080538414 -0.044198055 0.1956501 -0.14504363 0.043878563 -0.18041474 -0.1558933 0.12701195
0.12558457 0.08212202 0.10790852 -0.12324578 0.023472786 0.14570192 0.15866335 0.12404808
0.018516649 -0.114157826 -0.085685425 0.23141134 0.14379446 0.005617916 0.021100132 -0.2768393
-0.0531435 0.12501775 0.1335097 -0.1508804 -0.054802313 -0.0021140035 -0.238687 -0.045911703
0.04472503 0.09054179 -0.028555669 -0.13304174 -0.13631007 0.007406823 -0.07716316 -0.017605674
-0.020507168 0.14045171 0.031225726 -0.06067574 0.104280725 -0.03176825 0.05926323 -0.10174734
0.07602269 -0.07411727 -0.0008637525 0.108056456 0.01349958 0.04171372 -0.032012958 0.04588549
0.001606196 -0.0980156 -0.007928719 0.011722787 0.048150953 0.022918142 -0.060875636 0.085932255
-0.07262159 -0.10899365 -0.09507558 0.010812617 -0.055553943 -0.158493 -0.02158539 -0.008644574
-0.12330862 -0.026867148 0.07536822 -0.120685846 0.085738264 -0.11175503 -0.008460755 -0.042599484
-0.048659746 -0.059857074 0.06969421 -0.036161643 -0.06829009 0.050745986 0.12273468 0.09441003
-0.08737173 -0.14577721 -0.13359885 -0.045243673 -0.15093166 -0.025909305 -0.06042613 0.028795125

hidden_layers.2.bias f4 [64]
00000000: 7e2a 973d c9ea 8dbd 9ff9 a03d 3bdf 3dbe
00000010: d537 2abe bdc0 763e 28b9 473e a790 8c3d
00000020: cd0c fcbd dce0 7c3e 0ab4 c6bd 9b1b 803d
00000030: 1c87 133e e11e fd3d 932b 263e 6a5e 18be
00000040: 67a6 1ebe 1a1b 473e 2fc8 5b3e ed76 1e3e
00000050: 0527 293e 7c11 603e 31fc 1e3e e6c0 bbbd
00000060: 3a60 1cbe 86d4 b2bd 3f34 b3bd 6e46 863d
00000070: e40c 593e 8391 183e 11cc 32bd 156f e9bd
00000080: 0fb3 f13d c3bd c43d 508d 813d f280 5dbe
00000090: 3e5a 353c c981 063e 3dc6 153e 9254 edbd
000000a0: 64af 8cbe 3075 4a3e c37d c33d 2626 d03d
000000b0: cc1b 853d aac2 603e 7acd dcbd 868a 8f3d
000000c0: a1d5 983d 3b18 3c3e 95f8 aa3c 64d8 99bd
000000d0: a138 623e 0c7e 37bd e844 623e bde5 953d
000000e0: d5e0 0fbe 1618 20bd 2059 623e ac6a 0ebe
000000f0: 2649 e4bd 0827 563e e724 103e be42 c0bd
0.073811516 -0.06929547 0.078601114 -0.18542187 -0.1662286 0.24096961 0.19504225 0.06863528
-0.12307129 0.24695152 -0.097023085 0.06255265 0.14407009 0.12359405 0.1622756 -0.14879766
-0.15493165 0.19443932 0.21463083 0.15475054 0.16518791 0.2188167 0.15525891 -0.09167652
-0.15271083 -0.08731942 -0.087501995 0.06556402 0.21196324 0.14899258 -0.043651644 -0.1139814
0.11801731 0.09606507 0.06325781 -0.2163122 0.011068879 0.13135447 0.14626403 -0.11588396
-0.27477562 0.19771266 0.095454715 0.10163526 0.064994425 0.21949258 -0.10781379 0.07008843
0.074626215 0.18368618 0.020870486 -0.07511976 0.22091915 -0.044797942 0.22096598 0.0731921
-0.1405061 -0.03908547 0.22104311 -0.1390788 -0.111467645 0.20913327 0.14076577 -0.0938773

output.weight f4 [4, 64]
00000000: 6517 863e c315 9bbc d161 ed3d a42a 3a3d
00000010: 8c40 54bc 4da8 d23d 6697 cd3d af3e 87bd
00000020: 515d 87bd d41a 283e 466c 123d a2dd b63d
00000030: dc32 dd3d 47ef b03d 2d11 043e 5558 67bc
00000040: 6763 c13d 371f e33d 5117 1c3e 61fb 7b3d
00000050: e157 cd3d 8f81 8a3d 426e 42bd d5f2 8fbd
00000060: 3976 00be 01a8 6ebc 15c6 1bbd 97fd d7bd
00000070: d00a f23d 6356 9b3d a3ef 8d3d 6bc9 acbe
00000080: 27b2 a43d a3a5 01be f4c4 f0bd f613 293c
00000090: 08e7 5d3e 913e dd3d 4be2 a13d 0315 d03d
000000a0: ce93 d0bd 45e3 223e 507f 4fbe 53c6 683d
000000b0: 23bf 033e ce51 e03d 4aa6 a5bd bfbf b43e
000000c0: 0df3 e73d fbde 273e 872d 483c 2757 09bd
000000d0: 000c 873d fe41 b8be 02e7 103e f359 0b3d
000000e0: e45b 033e ea14 6fbe e926 8f3d fb0f 62bd
000000f0: a192 17be 6d2f ae3d 04c2 983d 0072 b4bd
00000100: 3f3c 8c3e 3c90 eb3d c554 0e3e 0dc3 093b
00000110: 39a8 c0bc ee39 da3d b474 663d 5a29 c13d
00000120: 5896 88bd cab3 1f3e 1f13 3e3e 013a c03d
00000130: 4ac1 f33d bbf2 f33d 6a01 273e 2c3e 323d
00000140: 2741 9d3d 05f6 e23d 48cd b13d 72c0 ed3d
00000150: 3966 863d c2ec 863d 890e d43a 427b a4bd
00000160: 7554 4fbd 9605 fabd f71d 57bd 5e66 c83c
00000170: 8832 c43d f309 a13d b8b8 9d3d d851 94bc
00000180: 0bd4 c53d 7ff3 9a3d ee35 8a3d 987e 94bd
00000190: f7e7 473e 5df7 b73d b46f 993d 10aa edbb
000001a0: 40b4 b3bc c6d3 5d3e 07e7 d9bc 6f45 963c
000001b0: 9881 373e ce43 fb3d 33f0 21bd 7ee9 a13e
000001c0: b006 063e ded9 cf3d 23d2 3cbe ca91 e939
000001d0: 44b5 d23d 11c2 9d3d 606e 423e 2b57 bcbb
000001e0: 67c7 573e 3f57 4b3d c4d7 b03d 1a36 bb3b
000001f0: 09fa 47bd 1afb ec3d 3df7 a33d b6f1 713b
00000200: 4c98 9b3e 94f2 aebd e494 b23d 05bd 0dbd
00000210: 90fd 09be fb6f 253e a207 fe3d b2b9 ecbd
00000220: 3920 ddbd d63b d93d 70af b73c da95 c73d
00000230: 28af 1d3e 3db2 983d 045e 67be 6921 b43c
00000240: 65c5 20be 92a9 fa3d ab51 f13d aac1 b03d
00000250: a116 9d3d 816c b53d 5bc4 73be 558a 35be
00000260: 464a a3bd 70c2 863d 09b3 20be 601c 17be
00000270: 9735 ff3d b1d5 d43d f1c3 debd 3b5a 20bd
00000280: 0e85 c13d 0409 913d 5794 733d 0ac7 8bbb
00000290: ed8b 763e e1be 9a3d a618 a03d 4d62 513b
000002a0: 1249 10bd a311 ab3a 9471 30bc 773a 563e
000002b0: a827 163e 6771 b93d 8b3d d73c 99a3 693e
000002c0: 2fd6 623e 90a7 a63c b58d 20be b040 a6bd
000002d0: 11c9 c83d 9831 4b3e fb7e 03be 4489 a7bd
000002e0: 46e0 a2bd 591a a5bd a331 e53d 6d45 9c3c
000002f0: 893f 8abe af5a cf3d c999 bb3d 3a6e 593d
00000300: ee6b ae3e 5f98 c4bc d6e0 5e3e d8a1 a7bd
00000310: 3ae3 c3bd 6904 f03d 8afa d63d d587 283e
00000320: f202 89be b99f c03d 66fd 573b d17b 033e
00000330: ec24 74bd f7de ca3d ef80 1b3e d998 9dbd
00000340: c8c9 c0bd b1da db3d a910 ab3d 42fb c53d
00000350: 2f00 053e d30e d33d ed16 8dbe f09c 52bd
00000360: b486 e3bc 302f 903d 22dd 87be 1274 e3bc
00000370: 8f4d ac3d d8d1 ba3d 3f9f 013e 8c8f 3cbe
00000380: 6bbd b83d e8f2 a13d ad19 003e 01f0 90bd
00000390: ae6a e63d 4de0 f43d bdb8 c23d b15d 1b3d
000003a0: 8c9e d23d 7be2 57bc 58db 55be 01c4 4abe
000003b0: a049 2b3e 90bd ff3d c0a2 f53d 1944 823e
000003c0: 0158 893c 8981 013e d512 c03d 07da 76bc
000003d0: c8a9 a53d 793b 50be a4bc 8dbe 5b05 183e
000003e0: b426 adbd 3bfe 16be 447a c43d bce9 313d
000003f0: 4ffe 6ebd b43a dc3d 8687 f23d 476c f6bb
0.26189724 -0.018931275 0.115909226 0.04545082 -0.012954842 0.10286007 0.100386426 -0.06603753
-0.066095956 0.16416484 0.03574779 0.08928992 0.10800716 0.086393885 0.12897177 -0.014120181
0.094427876 0.11089938 0.1524327 0.06151903 0.10026527 0.067629926 -0.04746843 -0.070287384
-0.12545098 -0.014566422 -0.038030703 -0.10546415 0.118184686 0.07584836 0.06930473 -0.3374742
0.08041792 -0.12660842 -0.11756316 0.0103197 0.21670163 0.10802949 0.0790449 0.10160258
-0.101844415 0.15907009 -0.2026341 0.05682976 0.12865882 0.10953103 -0.08088358 0.3530254
0.11325655 0.16393654 0.012217886 -0.03353038 0.06594086 -0.35987848 0.14150622 0.03402133
0.12828022 -0.23347822 0.069898434 -0.05519102 -0.14802028 0.085051395 0.074588805 -0.08810806
0.27389714 0.1150212 0.13899525 0.00210208 -0.023517715 0.106555805 0.05626364 0.09431715
-0.06669301 0.15595928 0.18561982 0.09386063 0.11902101 0.119115315 0.16309133 0.043516323
0.076784424 0.11082081 0.086817324 0.11608972 0.06562466 0.06588127 0.0016178648 -0.08031322
-0.050617654 -0.12208097 -0.05251881 0.024462875 0.095799506 0.07863226 0.07701248 -0.018105432
0.096595846 0.075659744 0.067485675 -0.07250708 0.19522081 0.08982728 0.07492009 -0.007252939
-0.021936536 0.21662816 -0.02659942 0.018343655 0.1792053 0.12268792 -0.039535712 0.31623453
0.13088489 0.10148977 -0.18439536 0.00044549844 0.1028848 0.07703031 0.18987417 -0.005747696
0.2107216 0.04964375 0.08634904 0.0057132365 -0.048822436 0.11571331 0.08006141 0.0036917753
0.3038963 -0.08542362 0.08719805 -0.03460409 -0.13475633 0.16155998 0.124037996 -0.11558856
-0.107971616 0.10607116 0.022422522 0.09745379 0.15398848 0.07455871 -0.22594458 0.021988587
-0.157003 0.12239374 0.11783155 0.086306885 0.07670332 0.08858586 -0.23805372 -0.1772855
-0.07973151 0.06580055 -0.15693296 -0.14756918 0.12461393 0.10392321 -0.108772166 -0.03914855
0.09449206 0.07081798 0.05946764 -0.0042656707 0.24076815 0.075559385 0.07817201 0.003194946
-0.035225935 0.0013051521 -0.010769267 0.2092074 0.14663565 0.09054833 0.026274463 0.22816314
0.22152017 0.020343572 -0.15679057 -0.08117807 0.098039754 0.19843137 -0.12841408 -0.08180478
-0.07952933 -0.08061666 0.11191108 0.019076074 -0.27001598 0.101247184 0.091601916 0.053083636
0.3406672 -0.023998437 0.21765456 -0.08185166 -0.095648244 0.11719591 0.10497005 0.16458066
-0.2676006 0.09405465 0.0032957434 0.12840201 -0.059605524 0.099058084 0.15185903 -0.07695169
-0.09413487 0.107350715 0.08352787 0.09667064 0.12988351 0.10305562 -0.27556553 -0.0514192
-0.027774192 0.0704025 -0.26535898 -0.027765308 0.08413231 0.09122056 0.12658404 -0.18414134
0.090205036 0.07907659 0.12509795 -0.07077027 0.11250816 0.119568445 0.09507892 0.037931148
0.10284147 -0.013176556 -0.20884454 -0.19801332 0.16727304 0.12487328 0.11993933 0.2544258
0.016765596 0.1264707 0.09378592 -0.01506663 0.08089024 -0.20335187 -0.27682984 0.14845793
-0.08454648 -0.14745419 0.09593633 0.043435797 -0.058347996 0.10753384 0.11842255 -0.007520232

output.bias f4 [4]
00000000: 2607 1f3f 7ece ee3e 81a2 073f 7f6f 023f
0.6212028 0.46641916 0.52982336 0.5095138
