checkpoint_signals.pth (torch_old, 45539 bytes, 8 tensors)

hidden_layers.0.weight f4 [64, 37]
-0.1752251 0.0447992 -0.017095398 -0.014201282 -0.08048699 -0.23122028 0.14178227 0.12978646
0.07579615 0.005450657 -0.09381348 -0.041642595 -0.106198594 -0.0824412 -0.28887427 -0.38982794
0.15679696 0.06831411 0.14243197 -0.18634315 0.013517692 0.13378908 0.023110678 0.091396764
-0.11765815 -0.20399778 0.17128427 0.047080036 -0.1444051 -0.0870425 -0.45414734 0.120357
-0.010873213 0.08681378 -0.29483962 0.03188303 -0.03115552 0.014990074 -0.052463964 0.1472696
0.033603083 -0.048517033 -0.20330392 -0.09464116 0.07208803 -0.057075914 0.32239357 0.05313367
-0.070273675 -0.10142307 0.025463054 0.26745886 -0.032661717 0.040783837 0.032725044 -0.03055311
0.21541548 -0.13664542 -0.1476968 -0.24971019 0.017884387 0.08040258 -0.3169454 -0.13085392
0.27973822 -0.06889204 -0.158611 -0.009387792 0.0025881198 0.07670933 0.047489524 -0.03026913
-0.010757992 -0.012183972 -0.025500864 0.24988963 -0.018496243 -0.13319765 0.08156016 -0.37884656
-0.0019392802 0.19443402 0.079054244 -0.57883924 -0.14710322 -0.09587165 0.012609513 0.09752778
0.24879041 -0.52972406 0.070576005 0.081143424 0.162285 -0.08474368 -0.45641115 0.06557833
0.16954753 0.012825894 -0.2648987 -0.33711603 0.15988906 0.081545785 0.058360253 -0.2510608
-0.14939769 -0.035829317 0.034066767 -0.19989206 -0.03382041 -0.026628498 -0.010587612 0.18334426
0.027115904 0.14789526 -0.016662082 -0.326566 -0.09485694 0.059167627 0.09331977 0.098403126
-0.15747821 0.1318142 -0.02738446 0.085859254 -0.4675216 -0.24885333 -0.0487438 -0.09292463
0.02082447 -0.062048297 -0.3059353 0.05660979 -0.23814796 0.06973043 0.058610853 -0.1510011
-0.19380426 0.14739303 0.099315025 0.18529427 -0.065595485 0.14198121 0.045024637 -0.08159392
-0.0071966685 -0.47712356 0.06722307 -0.003374638 -0.08255606 -0.051240142 -0.09894229 -0.13109258
-0.0654792 0.3460677 -0.43469808 -0.42133856 -0.24367402 -1.16254 0.012460076 -0.024585979
-0.016463205 -0.048991278 -0.023792053 -0.027865248 -0.08136032 -0.023616126 0.00081438856 0.1021301
0.00094681093 -0.0014668133 0.03249704 0.06484368 0.06273004 0.049558822 0.07521205 0.004164447
-0.080389224 -0.14264633 0.16373119 0.17854068 0.03325309 -0.06103246 -0.20468245 0.0059350687
0.01199018 0.082095124 -0.065222 -0.08290723 -0.0026563373 0.13188499 0.21921733 0.013690836
-0.21693666 -0.24568665 -1.4580383 -0.054980658 -0.11737237 0.0014540022 -0.120684825 -0.02512345
0.013694267 -0.03176341 0.0041822614 -0.10130442 -0.040424775 0.14885716 0.012082946 0.13873689
-0.08388504 -0.028628565 -0.023889648 -0.009347801 -0.07546852 -0.0060367393 -0.06664647 0.13789521
-0.107239 -0.21760707 -0.03973585 -1.0672921 -0.023926359 0.013722132 -0.18246226 0.06718569
-0.38507578 -0.011111607 0.046129093 -0.007820216 -0.2525925 -0.4930267 0.08306327 -0.27119464
-0.1659428 -0.18258289 0.10504314 0.036267914 0.064579114 -0.28728488 -0.2573882 0.063175224
0.054240745 0.07526372 -0.14496227 -0.2643642 0.11381221 -0.17121075 0.04937966 -0.09040645
-0.18852577 -0.06485605 -0.34313458 -0.18892378 0.11176029 0.03512717 -0.21824183 -0.2891645
00000000: 356e 33be 5e7f 373d a60b 8cbc 7eac 68bc
00000010: 5dd6 a4bd 02c5 6cbe 5f2f 113e bee6 043e
00000020: 033b 9b3d 6d9b b23b 4821 c0bd 6d91 2abd
00000030: a67e d9bd efd6 a8bd 54e7 93be 8797 c7be
00000040: 628f 203e 45e8 8b3d b0d9 113e bdd0 3ebe
00000050: 4f79 5d3c 0100 093e 9b52 bd3c 3a2e bb3d
00000060: c2f6 f0bd cbe4 50be 2565 2f3e ffd6 403d
00000070: eede 13be 5743 b2bd 0086 e8be bb7d f63d
00000080: 9025 32bc 6ccb b13d 38f5 96be c897 023d
00000090: dc39 ffbc ed98 753c 74e4 56bd d8cd 163e
000000a0: 63a3 093d ccb9 46bd e72e 50be 39d3 c1bd
000000b0: e4a2 933d 6fc8 69bd c510 a53e b1a2 593d
000000c0: a5eb 8fbd e6b6 cfbd e597 d03c 5ef0 883e
000000d0: 4bc8 05bd f40c 273d b20a 063d 844a fabc
000000e0: e095 5c3e c7ec 0bbe d43d 17be 07b4 7fbe
000000f0: 4782 923c 1caa a43d ab46 a2be 92fe 05be
00000100: d939 8f3e 4517 8dbd ec6a 22be 41cf 19bc
00000110: 729d 293b c819 9d3d 6084 423d f7f6 f7bc
00000120: 4a42 30bc 489f 47bc 30e7 d0bc 11e3 7f3e
00000130: 6f85 97bc f764 08be 0309 a73d 2df8 c1be
00000140: 722f feba b619 473e 31e7 a13d cf2e 14bf
00000150: 3aa2 16be 5b58 c4bd 2198 4e3c a5bc c73d
00000160: eac2 7e3e ff9b 07bf 278a 903d 862e a63d
00000170: 0a2e 263e 188e adbd b9ae e9be ee4d 863d
00000180: de9d 2d3e b323 523c cda0 87be 799a acbe
00000190: f5b9 233e 7a01 a73d 290b 6f3d 0b8b 80be
000001a0: b5fb 18be c3c1 12bd 9889 0b3d 81b0 4cbe
000001b0: 4587 0abd 0224 dabc aa77 2dbc 99be 3b3e
000001c0: 2c22 de3c db71 173e eb7e 88bc a933 a7be
000001d0: 5b44 c2bd c159 723d 701e bf3d 9487 c93d
000001e0: f841 21be 4dfa 063e 6055 e0bc fad6 af3d
000001f0: fe5e efbe 68d3 7ebe 94a7 47bd 454f bebd
00000200: 1498 aa3c 5b26 7ebd 8da3 9cbe abdf 673d
00000210: 0fdd 73be d4ce 8e3d ef11 703d 08a0 1abe
00000220: a074 46be 33ee 163e ad65 cb3d c8bd 3d3e
00000230: ed56 86bd 8663 113e c16b 383d b71a a7bd
00000240: 08d2 ebbb 8a49 f4be 40ac 893d 0829 5dbb
00000250: 2713 a9bd 2fe1 51bd 41a2 cabd 223d 06be
00000260: f519 86bd c92f b13e bf90 debe b0b9 d7be
00000270: af85 79be 1cce 94bf 5925 4c3c 8968 c9bc
00000280: d8dd 86bc 14ab 48bd 8de7 c2bc a945 e4bc
00000290: 3da0 a6bd 9b76 c1bc b17c 553a 9629 d13d
000002a0: 6833 783a 1642 c0ba 9e1b 053d c3cc 843d
000002b0: 9b78 803d 31fe 4a3d c608 9a3d ea75 883b
000002c0: 1ba3 a4bd e111 12be 26a9 273e 5ed3 363e
000002d0: 6434 083d 2cfd 79bd 4798 51be f77a c23b
000002e0: 7672 443c 7d21 a83d 1d93 85bd 44cb a9bd
000002f0: f215 2ebb dc0c 073e 827a 603e 874f 603c
00000300: a524 5ebe 4895 7bbe 00a1 babf 6633 61bd
00000310: ed60 f0bd 3894 be3a 9b29 f7bd b2cf cdbc
00000320: eb5d 603c 591a 02bd 5a0b 893b b178 cfbd
00000330: 7394 25bd 036e 183e 8cf7 453c 0b11 0e3e
00000340: ebcb abbd 7486 eabc 39b4 c3bc 8527 19bc
00000350: 3d8f 9abd d7cf c5bb f27d 88bd 6734 0d3e
00000360: 1fa0 dbbd 63d4 5ebe 0fc2 22bd 079d 88bf
00000370: 3601 c4bc cbd2 603c 63d7 3abe a798 893d
00000380: a728 c5be 750d 36bc dcf1 3c3d 5d20 00bc
00000390: ce53 81be ff6d fcbe 131d aa3d 06da 8abe
000003a0: e9ec 29be 02f7 3abe dc20 d73d aa8d 143d
000003b0: 0e42 843d 0117 93be 63c8 83be 0362 813d
000003c0: 8b2b 5e3d dd23 9a3d fd70 14be bf5a 87be
000003d0: 6016 e93d df51 2fbe 5442 4a3d 0427 b9bd
000003e0: e60c 41be 40d3 84bd 56af afbe 3c75 41be
000003f0: 94e2 e43d 82e1 0f3d c97a 5fbe 5f0d 94be

hidden_layers.0.bias f4 [64]
0.02595991 -0.1213271 -0.09827209 -0.04311438 0.23520961 -0.008533392 -0.15060917 -0.02591856
0.04423183 -0.15327288 0.07967224 0.14586665 -0.0020109827 0.024088582 -0.1166815 -0.11070633
-0.0572031 -0.024340495 -0.010717427 -0.28467923 -0.074158564 -0.030413074 -0.09868617 -0.07422657
-0.09474682 0.12070522 -0.0154110985 -0.25506327 0.14987871 0.066462435 -0.17180073 -0.19279142
0.09849488 -0.046827406 -0.21559316 0.023374509 -0.11652993 0.011761899 -0.07908056 -0.23683032
-0.1136365 -0.0056310473 -0.040615693 0.0729398 -0.031729955 -0.16126801 -0.05522591 -0.22678812
-0.047266256 0.08407494 -0.2488319 0.013136334 -0.11516877 0.041957326 -0.28171435 -0.08187747
0.13687815 -0.1276794 -0.08335904 -0.1364101 0.009941058 0.027021585 -0.04258667 0.06823369
00000000: e1a9 d43c 587a f8bd e142 c9bd b498 30bd
00000010: cada 703e a4cf 0bbc 4a39 1abe 2953 d4bc
00000020: 6f2c 353d 91f3 1cbe 332b a33d 115e 153e
00000030: b1ca 03bb 6b55 c53c b6f6 eebd 00ba e2bd
00000040: cc4d 6abd b865 c7bc 2698 2fbc 7ac1 91be
00000050: 72e0 97bd d724 f9bc fa1b cabd 1a04 98bd
00000060: 9f0a c2bd 4c34 f73d d57e 7cbc a797 82be
00000070: ce79 193e 751d 883d 88ec 2fbe 1d6b 45be
00000080: afb7 c93d 18ce 3fbd 74c4 5cbe e67b bf3c
00000090: 3ea7 eebd fbb4 403c fdf4 a1bd a683 72be
000000a0: 41ba e8bd a684 b8bb a45c 26bd 7661 953d
000000b0: 45f7 01bd 7123 25be 9034 62bd 253b 68be
000000c0: 439a 41bd 7b2f ac3d cacd 7ebe c739 573c
000000d0: 9bdd ebbd 72db 2b3d dd3c 90be 60af a7bd
000000e0: c929 0c3e 63be 02be 25b8 aabd 17af 0bbe
000000f0: d2df 223c 5f5c dd3c 5c6f 2ebd 1bbe 8b3d

hidden_layers.1.weight f4 [64, 64]
-0.18180713 0.15445893 0.16555469 0.2641081 -0.030232098 -0.28828427 -0.0697725 -0.1890739
0.11868274 -0.0146394195 -0.11105149 -0.0742444 -0.35372853 0.109160736 -0.19418588 -0.15233858
-0.12519385 -0.13624582 0.0041977046 0.008217357 -0.09861159 -0.12929244 0.12954494 -0.12382817
0.012215438 0.020167314 0.13988455 -0.2147301 -0.0060248883 -0.18992428 0.047435474 -0.14618914
0.105762914 -0.009865229 -0.14204028 -0.020766145 -0.11551021 0.1174284 0.013579372 -0.13612412
-0.2404496 -0.05694511 -0.14311245 -0.22538085 0.060143776 -0.29408246 -0.30726182 -0.08825398
-0.3088103 -0.035187207 -0.31722072 -0.04153975 -0.17831665 -0.06395822 -0.113827914 -0.3257585
-0.03974747 -0.16526295 -0.27255777 0.14337055 -0.046669994 0.23934445 -0.07214386 -0.012886922
-0.046420958 0.08027462 0.014327209 -0.08992703 0.08740025 0.11730746 -0.06931877 0.063727595
-0.09134786 0.065426506 0.054685045 0.115160786 -0.07541774 0.08399119 -0.03667363 0.03753652
0.07404903 0.061344635 -0.061364435 -0.054905053 0.22333154 -0.101615824 -0.024697343 0.022678217
-0.047871564 -0.038454432 0.023816166 -0.05588744 0.06976882 -0.19168311 -0.23980872 -0.11033726
-0.165114 0.049557984 0.015339314 -0.16964827 -0.029211037 0.095614865 0.02652498 -0.274175
-0.06784201 0.06602709 -0.0044485405 -0.06299439 -0.009706356 -0.033226438 -0.07739663 0.064325996
-0.101050526 -0.0058729965 0.0696771 0.18834001 -0.15399933 0.00022386959 -0.11566394 0.08273808
-0.18820709 -0.050159995 0.14707403 -0.0010717575 -0.17785725 -0.1099638 0.03528107 -0.006416393
-0.43314868 -0.13897526 0.1716258 -0.15145051 -0.09730228 -0.021944482 0.025575968 0.022379842
0.210754 -0.15243493 0.09406437 0.13254489 0.08680574 -0.026537517 -0.01225362 0.14052628
-0.10138278 -0.00070482376 0.065172784 -0.035460092 -0.3592503 0.09881925 -0.04540265 -0.20785046
0.011817201 0.091567345 -0.067165636 -0.018873444 -0.05493351 0.054764252 -0.098264165 -0.04469711
-0.08117065 -0.1172933 -0.06382935 0.005921601 -0.013132496 0.07882157 -0.10331554 -0.056811407
0.19510102 -0.12748607 -0.08815817 -0.36773902 0.082493015 -0.033027332 -0.17977616 -0.15561624
-0.0732023 -0.15853676 -0.24990399 0.09722847 -0.1131753 0.24526976 -0.3302026 0.009338599
-0.14266884 -0.25493515 0.10770182 0.040880118 -0.29847154 0.10652884 0.010253783 -0.07033436
-0.15054072 -0.09924415 -0.0141024 -0.09313755 0.18932967 0.2250022 -0.080239125 0.040476374
0.10263394 -0.025070256 0.11618241 0.19468307 -0.1366061 0.056677483 0.028566025 -0.16404735
0.056045655 0.1186821 0.014165555 -0.04031459 0.23430137 0.150421 -0.0073724594 0.10562234
0.15781207 0.1307112 -0.06741149 0.06826235 0.1661591 0.14088193 -0.380399 -0.007997975
-0.13946448 0.20126565 -0.14099374 0.120187245 0.018012607 0.15875956 -0.13365647 0.012884784
0.16255142 0.22344942 0.1491055 -0.12207104 -0.060357388 -0.024852384 -0.075314745 0.090224
0.17684934 0.20155863 -0.06344436 0.2385062 0.045448143 0.13015017 0.024359308 0.01995961
-0.26779923 0.041444656 0.0019209799 -0.01260974 -0.0911501 0.04919484 -0.067435205 0.13025235
00000000: a62b 3abe 7b2a 1e3e 2b87 293e 2d39 873e
00000010: 4ea9 f7bc ff99 93be e2e4 8ebd 979c 41be
00000020: f00f f33d 2dda 6fbc f76e e3bd 730d 98bd
00000030: e81b b5be aa8f df3d aad8 46be a5fe 1bbe
00000040: d132 00be 0684 0bbe e68c 893b 18a2 063c
00000050: e0f4 c9bd 3d65 04be 6ea7 043e a099 fdbd
00000060: 4323 483c ec35 a53c e53d 0f3e 35e2 5bbe
00000070: 6d6c c5bb 837b 42be b34b 423d 9bb2 15be
00000080: 3a9a d83d c5a1 21bc 0273 11be c31d aabc
00000090: 9e90 ecbd 4d7e f03d 047c 5e3c 1f64 0bbe
000000a0: 6c38 76be 473f 69bd 128c 12be 3dca 66be
000000b0: 5259 763d fa91 96be 6c51 9dbe 81be b4bd
000000c0: 621c 9ebe 7620 10bd c16a a2be 9625 2abd
000000d0: a498 36be 87fc 82bd 9c1e e9bd d1c9 a6be
000000e0: 3ece 22bd b13a 29be b18c 8bbe bbcf 123e
000000f0: 0929 3fbd b616 753e 29c0 93bd ab23 53bc
00000100: e723 3ebd 0567 a43d acbc 6a3c aa2b b8bd
00000110: e7fe b23d e53e f03d 00f7 8dbd 9d83 823d
00000120: 9614 bbbd 55fe 853d 6dfd 5f3d 6bd9 eb3d
00000130: 9e74 9abd 9303 ac3d 1737 16bd e5bf 193d
00000140: 05a7 973d 8344 7b3d 4659 7bbd 1fe4 60bd
00000150: 06b1 643e f51b d0bd 1552 cabc abc7 b93c
00000160: f914 44bd 6582 1dbd 1f1a c33c 3aea 64bd
00000170: f5e2 8e3d 9448 44be 6b90 75be 80f8 e1bd
00000180: a513 29be 50fd 4a3d bf51 7b3c 47b8 2dbe
00000190: fc4b efbc bad1 c33d ea4a d93c aa60 8cbe
000001a0: c0f0 8abd 3639 873d 10c5 91bb 3403 81bd
000001b0: 6807 1fbc 7218 08bd 2082 9ebd 59bd 833d
000001c0: 94f3 cebd 4472 c0bb deb2 8e3d 34dc 403e
000001d0: 00b2 1dbe 89be 6a39 37e1 ecbd 9572 a93d
000001e0: 5cb9 40be 9174 4dbd 939a 163e 377a 8cba
000001f0: 3620 36be b334 e1bd e282 103d 9b40 d2bb
00000200: aac5 ddbe 884f 0ebe acbe 2f3e d815 1bbe
00000210: 6b46 c7bd eac4 b3bc b184 d13c ee55 b73c
00000220: e6cf 573e e717 1cbe d2a4 c03d d9b9 073e
00000230: 35c7 b13d 3565 d9bc 68c3 48bc 1fe6 0f3e
00000240: c6a1 cfbd ecc3 38ba 4f79 853d 9a3e 11bd
00000250: a8ef b7be bf61 ca3d 21f8 39bd c0d6 54be
00000260: ef9c 413c a987 bb3d 238e 89bd 7b9c 9abc
00000270: f601 61bd 7b50 603d b93e c9bd 5114 37bd
00000280: cc3c a6bd 7837 f0bd f6b8 82bd fd09 c23b
00000290: ae29 57bc 346d a13d 1997 d3bd 14b3 68bd
000002a0: 90c8 473e b58b 02be 458c b4bd 4a48 bcbe
000002b0: 19f2 a83d ab47 07bd 3e17 38be dd59 1fbe
000002c0: 16eb 95bd 7657 22be d5e6 7fbe b81f c73d
000002d0: 74c8 e7bd ff27 7b3e 5110 a9be ec00 193c
000002e0: c817 12be dc86 82be c692 dc3d e971 273d
000002f0: 43d1 98be cb2b da3d 7cff 273c 760b 90bd
00000300: 5927 1abe 8440 cbbd c10d 67bc e6be bebd
00000310: a3df 413e fa66 663e 6954 a4bd 8eca 253d
00000320: be31 d23d 2360 cdbc 0bf1 ed3d 005b 473e
00000330: 78e2 0bbe a626 683d 4c03 ea3c 07fc 27be
00000340: 2190 653d 9a0f f33d a516 683c e920 25bd
00000350: b3ec 6f3e f607 1a3e ac94 f1bb 8750 d83d
00000360: 7d99 213e 28d9 053e 090f 8abd 22cd 8b3d
00000370: 9c25 2a3e 5a43 103e a8c3 c2be f009 03bc
00000380: c7cf 0ebe 9518 4e3e aa60 10be bb24 f63d
00000390: 2d8f 933c de91 223e 3edd 08be b31a 533c
000003a0: e173 263e edcf 643e 1daf 183e 6200 fabd
000003b0: 4f39 77bd 3a97 cbbc 9e3e 9abd 5cc7 b83d
000003c0: fe17 353e 6365 4e3e 1eef 81bd f83a 743e
000003d0: d527 3a3d 1646 053e 2c8d c73c 5682 a33c
000003e0: fb1c 89be dfc1 293d 64c9 fb3a 1599 4ebc
000003f0: e7ac babd 8780 493d 781b 8abd df60 053e

hidden_layers.1.bias f4 [64]
-0.099025466 -0.050089728 0.038049597 0.019363998 0.008263337 0.012320122 -0.0803772 0.0001545494
0.11459606 0.1434011 -0.034335766 -0.0022569252 0.043313257 0.11024785 -0.10810469 -0.029697858
0.13445379 0.06343636 -0.06797591 0.019296933 0.09403794 0.21173872 -0.09623002 -0.079273924
-0.0666251 0.022377022 0.0818335 -0.038638227 0.030174898 0.083616994 0.07863279 -0.1988339
-0.01858887 -0.041511193 -0.015385765 0.002246206 -0.060364623 0.028251711 -0.007720485 -0.13339153
-0.1045107 0.030467987 0.093583204 -0.028544793 -0.011700429 -0.04517175 0.051454745 0.08434112
0.20799696 -0.15694255 0.048181612 0.109918065 -0.085052386 0.07754782 -0.05844509 -0.09376262
-0.06983954 -0.17562824 -0.027875014 0.01707085 0.017747777 0.027988752 0.054122668 0.03756582
00000000: ddcd cabd e32a 4dbd e5d9 1b3d 3fa1 9e3c
00000010: f362 073c 56da 493c cd9c a4bd 8a0e 2239
00000020: 57b1 ea3d bdd7 123e a9a3 0cbd ece8 13bb
00000030: 3e69 313d a0c9 e13d fe65 ddbd ec48 f3bc
00000040: 41ae 093e ecea 813d f436 8bbd 9a14 9e3c
00000050: f796 c03d 09d2 583e 3f14 c5bd 5e5a a2bd
00000060: be72 88bd 0450 b73c 5298 a73d 1e43 1ebd
00000070: 5931 f73c 633f ab3d 3a0a a13d 1d9b 4bbe
00000080: b047 98bc a407 2abd 9314 7cbc 1535 133b
00000090: e540 77bd 2270 e73c 1ffc fcbb ca97 08be
000000a0: b509 d6bd 0098 f93c 8da8 bf3d c5d6 e9bc
000000b0: 28b3 3fbc 0306 39bd 36c2 523d 0abb ac3d
000000c0: 28fd 543e 8cb5 20be 155a 453d b91c e13d
000000d0: f22f aebd 64d1 9e3d 1e64 6fbd 9e06 c0bd
000000e0: 0808 8fbd e4d7 33be 245a e4bc 2bd8 8b3c
000000f0: c963 913c ab48 e53c bbaf 5d3d 9ede 193d

hidden_layers.2.weight f4 [64, 64]
0.07202259 0.10316785 0.09246813 -0.034567315 0.18193348 -0.20090076 0.17323768 0.032144953
0.036372863 -0.121385716 -0.16051485 0.093649566 0.12644063 -0.028889585 -0.23050702 -0.15094122
-0.12959523 0.045488775 -0.02157707 0.24249083 0.1065372 -0.05214072 -0.27460805 -0.04664682
-0.15740249 -0.033589035 -0.20053048 -0.1626417 -0.14392832 0.06297828 -0.11117114 0.074893676
0.14371234 0.24509308 0.14004993 0.17585361 0.13245575 -0.16282974 0.026835142 0.20424667
0.057008993 0.12986249 -0.18613583 -0.0800292 -0.017530648 -0.14750807 0.013987188 0.097149804
-0.038233895 0.20661007 -0.007115528 0.036156427 0.021735802 -0.0874495 -0.10040159 -0.116172455
-0.2481804 -0.044673063 0.15117264 0.034382638 -0.13742352 0.30402595 -0.29204974 0.022208882
0.21548726 0.0064721364 0.07037823 -0.016826967 0.033459473 -0.18973926 0.07745898 -0.0009724878
-0.021139232 -0.18034002 0.14007632 0.15400545 0.09397215 -0.032718997 0.047395337 0.051280703
-0.12928692 -0.23872022 -0.022716606 -0.061063543 0.19104627 -0.069662035 0.023777407 0.09737507
-0.07098299 -0.11901409 0.124349 -0.13441476 -0.09828254 0.14499997 0.097920924 0.06942118
0.020991324 -0.01606091 0.2243649 0.095674455 0.066454045 -0.19896908 0.1915802 -0.0576601
-0.0333478 0.18434545 -0.103511564 0.10503322 -0.120171405 -0.054689735 -0.13896619 0.002881071
0.038559884 -0.1162567 -0.50682825 -0.08178312 0.15099512 -0.029418405 0.011416286 0.012278479
-0.026743533 -0.05980983 0.13233475 -0.047002632 0.022073612 -0.078587316 0.0357485 0.027449567
-0.082726955 0.18965209 0.15568332 0.033931036 0.17220186 -0.25649312 0.114138685 0.011702972
-0.10270412 0.08637462 -0.0564451 0.16172665 0.12105175 -0.04881757 -0.002337364 0.20127505
0.15460029 -0.19659844 0.07544442 -0.091190025 -0.08813302 -0.044701643 -0.022270909 0.024955941
-0.07753066 -0.18096046 0.01630897 -0.13016713 -0.045174215 0.06722478 -0.006452003 -0.06628694
-0.23490576 -0.06504063 0.09289784 0.18111183 0.13870113 -0.3049709 0.08966947 -0.089063235
0.0020639969 0.03174719 -0.05255563 0.14003558 -0.002157111 0.075103134 -0.073503226 0.1559904
0.07151723 0.00815277 -0.119318955 -0.048089195 -0.04789414 -0.012802871 0.012749341 0.1360456
0.02012012 -0.06472864 0.13507923 0.004337518 -0.095209554 -0.03661104 -0.09948643 -0.027425747
0.04870432 0.07482303 -0.012710086 -0.14413483 -0.045378234 -0.0530437 -0.07911979 0.000460784
-0.0708151 0.06379078 0.0871416 -0.0573331 0.031202886 -0.00128945 0.05926323 -0.0646544
0.0371175 0.013948579 0.0018932371 0.054605264 -0.059157956 0.03130537 -0.05648176 0.0007072788
-0.11159154 -0.073794976 -0.023646086 0.045991175 0.059213106 -0.09210997 -0.102861576 0.056087203
-0.12481709 0.0110154385 -0.14466195 0.011670282 -0.02206349 -0.13101475 0.0062064547 -0.03947358
-0.105155565 0.049724802 0.022937976 -0.1321748 0.04055339 -0.16652888 -0.013594029 -0.008462449
-0.0995938 -0.1253515 -0.011220117 -0.03188175 0.03335291 -0.055163912 0.107914455 0.100831434
-0.07806835 -0.120062254 -0.07750431 -0.060596276 -0.06485659 0.023402529 -0.06972939 -0.010460119
00000000: 9480 933d aa49 d33d ee5f bd3d 7596 0dbd
00000010: c54c 3a3e eeb8 4dbe 3865 313e 6daa 033d
00000020: b6fb 143d 1399 f8bd 015e 24be 58cb bf3d
00000030: a779 013e daa9 ecbc 080a 6cbe 5690 1abe
00000040: 9db4 04be 7052 3a3d 65c2 b0bc 844f 783e
00000050: 2d30 da3d 8291 55bd 6d99 8cbe bc10 3fbd
00000060: 1e2e 21be a894 09bd dd57 4dbe 8c8b 26be
00000070: f261 13be c2fa 803d b2ad e3bd db61 993d
00000080: 5429 133e aef9 7a3e 4069 0f3e f812 343e
00000090: 7ba2 073e d7bc 26be 5fd5 db3c 0a26 513e
000000a0: 4382 693d acfa 043e 649a 3ebe 59e6 a3bd
000000b0: 6f9c 8fbc 5b0c 17be 852a 653c 7af6 c63d
000000c0: 259b 1cbd 9791 533e 6029 e9bb c318 143d
000000d0: 480f b23c b918 b3bd 599f cdbd d3eb edbd
000000e0: 0123 7ebe 1afb 36bd 00cd 1a3e cfd4 0c3d
000000f0: c0b8 0cbe 4aa9 9b3e 8b87 95be 67ef b53c
00000100: b1a8 5c3e 3714 d43b 7622 903d b5d8 89bc
00000110: cd0c 093d 024b 42be d0a2 9e3d 8dee 7eba
00000120: 2f2c adbc 0eab 38be 2b70 0f3e 9bb3 1d3e
00000130: 7874 c03d 5b04 06bd 9d21 423d b70b 523d
00000140: ca63 04be 1373 74be 2d18 babc c41d 7abd
00000150: a2a1 433e f8aa 8ebd d6c8 c23c 956c c73d
00000160: 885f 91bd a9bd f3bd b0aa fe3d 06a4 09be
00000170: 5b48 c9bd df7a 143e c48a c83d b12c 8e3d
00000180: fff5 ab3c 2b92 83bc eabf 653e f8f0 c33d
00000190: 0f19 883d 8dbe 4bbe 9a2d 443e ff2c 6cbd
000001a0: b497 08bd 0ec5 3c3e dffd d3bd a81b d73d
000001b0: 6d1c f6bd 5802 60bd 274d 0ebe 5ad0 3c3b
000001c0: f8f0 1d3d fe17 eebd 7fbf 01bf e97d a7bd
000001d0: 779e 1a3e defe f0bc 600b 3b3c ac2b 493c
000001e0: 4115 dbbc 27fb 74bd c382 073e d585 40bd
000001f0: b8d3 b43c 63f2 a0bd 056d 123d eadd e03c
00000200: c06c a9bd 2834 423e 736b 1f3e 45fb 0a3d
00000210: af55 303e 1153 83be 8bc1 e93d d3bd 3f3c
00000220: 8a56 d2bd 2de5 b03d fa32 67bd ac9b 253e
00000230: fbe9 f73d eff4 47bd 762e 19bb 0c1b 4e3e
00000240: 8a4f 1e3e 1a51 49be 9b82 9a3d d6c1 babd
00000250: 167f b4bd 1219 37bd 7b71 b6bc 6770 cc3c
00000260: 65c8 9ebd b34d 39be 649a 853c 884a 05be
00000270: 9908 39bd 25ad 893d 536b d3bb 72c1 87bd
00000280: 238b 70be 0634 85bd 3941 be3d 6175 393e
00000290: ab07 0e3e 2525 9cbe a1a4 b73d c966 b6bd
000002a0: 1f44 073b 5709 023d 9344 57bd 7d65 0f3e
000002b0: 515e 0dbb accf 993d dc88 96bd f3bb 1f3e
000002c0: a077 923d 3293 053c 7f5d f4bd 2df9 44bd
000002d0: a52c 44bd 22c3 51bc 9de2 503c 8a4f 0b3e
000002e0: f3d2 a43c 7390 84bd 3652 0a3e bd21 8e3b
000002f0: 3afd c2bd 75f5 15bd 8bbf cbbd f6ab e0bc
00000300: 2e7e 473d d13c 993d f73d 50bc 1598 13be
00000310: 87de 39bd 5a44 59bd 8e09 a2bd 6295 f139
00000320: 8207 91bd bea4 823d 4c77 b23d 1dd6 6abd
00000330: 329d ff3c c302 a9ba 00be 723d 8769 84bd
00000340: 8508 183d 9588 643c 7f26 f83a c5a9 5f3d
00000350: 9d4f 72bd 0f3a 003d 6b59 67bd ad68 393a
00000360: 1b8a e4bd d221 97bd 70b5 c1bc 3e61 3c3d
00000370: 7189 723d 27a4 bcbd 17a9 d2bd b2bb 653d
00000380: 1aa0 ffbd 197a 343c 4322 14be b634 3f3c
00000390: 7ebe b4bc bb28 06be 845f cb3b 0caf 21bd
000003a0: cd5b d7bd 3cac 4b3d 6ce8 bb3c d558 07be
000003b0: 501b 263d 8c86 2abe 7db9 5ebc 15a6 0abc
000003c0: d6f7 cbbd 255c 00be 95d4 37bc 7096 02bd
000003d0: 109d 083d 8ef3 61bd 4102 dd3d b680 ce3d
000003e0: 4de2 9fbd 33e3 f5bd 94ba 9ebd cd33 78bd
000003f0: 88d3 84bd a9b6 bf3c 48ce 8ebd eb60 2bbc

hidden_layers.2.bias f4 [64]
0.004795278 0.16472654 0.091133244 -0.22942641 -0.11268165 0.08520547 -0.15404895 0.12780997
-0.026371762 0.20872459 0.20285515 0.033002622 0.22784567 0.17939286 -0.0006947434 -0.10146674
0.051726915 0.058999337 0.18562827 0.20959184 0.22314091 0.21624932 0.14036854 0.047899835
-0.13260081 -0.06631126 -0.062666245 0.1832416 -0.059909027 0.17308235 -0.19526835 -0.17296873
0.13264427 0.14560983 0.23700613 0.15336962 -0.15314129 0.18293828 0.17632778 0.17642848
-0.0019622967 0.2320431 0.12697624 0.02510339 0.20247556 0.20224358 0.20472181 0.0457185
-0.18199642 0.22428879 0.15653814 0.12844196 0.18670651 0.03268864 0.21752502 0.17969355
0.19238488 -0.24636696 0.2513036 -0.22578081 -0.29188856 0.22201528 -0.0033046473 0.09561213
00000000: b521 9d3b 13ae 283e 11a4 ba3d c2ee 6abe
00000010: a3c5 e6bd 3580 ae3d 02bf 1dbe 9ee0 023e
00000020: 9809 d8bc e6bb 553e 43b9 4f3e c22d 073d
00000030: 6050 693e c3b2 373e 711f 36ba cbcd cfbd
00000040: 9adf 533d 4aa9 713d 5615 3e3e 3e9f 563e
00000050: 0d7f 643e 7670 5d3e c5bc 0f3e 9e32 443d
00000060: 82c8 07be 33ce 87bd 2957 80bd b0a3 3b3e
00000070: 2b63 75bd 803c 313e 6df4 47be b71e 31be
00000080: e6d3 073e be1a 153e bcb1 723e ed0c 1d3e
00000090: 12d1 1cbe 2c54 3b3e 458f 343e aba9 343e
000000a0: e099 00bb b59c 6d3e 0f06 023e a0a5 cd3c
000000b0: c155 4f3e f118 4f3e 98a2 513e 5243 3b3d
000000c0: 455d 3abe f6ab 653e 894b 203e 4a86 033e
000000d0: fe2f 3f3e 86e4 053d e1be 5e3e 9601 383e
000000e0: 8b00 453e 9f47 7cbe deaa 803e 1633 67be
000000f0: 6b72 95be f957 633e c892 58bb 4bd0 c33d

output.weight f4 [4, 64]
-0.1031836 0.10314244 0.11460176 0.015734065 -0.018697705 0.3910524 -0.009708094 0.04266734
0.16252343 0.14188622 0.090288885 0.14869991 0.12878856 0.09880766 -0.13988467 -0.03137346
-0.03506743 0.09705901 0.13589197 0.09496794 0.08890884 0.1026601 -0.28312722 -0.08692743
-0.059275713 0.06856474 0.009443385 0.0952705 0.12943639 0.07210956 -0.068963036 -0.03991084
0.0725098 -0.09988662 0.11110624 0.09699774 -0.031196855 0.16275078 0.10100441 0.14183924
-0.07841995 0.09533011 -0.183647 0.01047951 0.10193529 0.08591041 0.08496182 0.20245983
-0.07909503 0.17521015 0.15667619 0.11301132 0.10192754 -0.27486134 0.12808444 0.093773305
0.09320771 -0.051475294 0.06742592 -0.1995036 -0.1586679 0.092880316 0.15786614 0.028244017
0.11644763 0.10702002 0.09834235 -0.029181222 -0.08315278 0.33358338 0.01953278 0.026840338
0.014628103 0.08059831 0.10169135 0.10358377 0.11644804 0.089019045 -0.1841838 0.19456108
0.08183553 0.029115412 0.16432802 0.10512011 0.0718966 0.12509102 -0.019320508 0.12823844
-0.05089461 -0.08008064 -0.0966783 0.092483565 0.11285593 0.086499274 -0.029067695 -0.08682328
0.11059339 0.071970485 0.078190506 0.082491 -0.074934945 0.21576901 0.097550526 0.18786247
0.038546916 0.09137644 -0.017793244 -0.06875104 0.088079385 0.097079 0.08822068 0.24162647
-0.08925542 0.2255666 0.12921183 0.14840282 0.09770236 0.046532672 0.0020147783 0.059743762
0.116242684 0.091132626 0.07667884 -0.17046644 -0.20586872 0.094884455 0.16212276 0.14979449
-0.19062664 0.028165877 0.05831985 -0.0104186395 -0.012829843 0.31712946 -0.013417148 -0.19562726
-0.16520098 0.117008515 0.10587914 0.20806824 0.13586998 0.12298539 -0.33106026 -0.15358478
0.062392827 0.13023497 0.20163165 0.11907592 0.12304941 0.07460213 -0.18022276 0.08299839
-0.07475384 0.0974598 -0.23514713 0.115595035 -0.08544403 0.09103033 -0.07212561 0.001128164
0.11899205 0.063390866 0.1483811 0.15163748 0.10273567 -0.06428561 0.05191829 0.112402745
-0.053374413 0.09962479 -0.07632405 -0.1348535 0.117610596 0.09712651 0.17412345 -0.01913217
0.08354662 0.14401293 -0.043343168 0.1750054 0.1156587 -0.059298668 0.17843571 0.07259708
0.11439869 -0.21596342 0.09634659 0.013812986 -0.28635207 0.09161242 0.064299166 0.24438284
0.048599217 0.18383767 0.090445474 -0.024473207 -0.12583555 0.23135433 -0.08038682 0.20480844
0.057440724 0.08692511 0.121843 0.1898562 0.03859141 0.10162183 -0.13742359 -0.035975758
0.101948924 0.111552425 0.14975278 0.09323998 0.11472914 0.08938912 -0.057809804 0.0884775
0.062053107 0.09788543 0.00076257274 0.14384578 -0.10344062 0.082858734 0.012329313 -0.035463728
0.095609844 0.11366186 0.12290983 0.082663454 0.05076395 0.065299116 0.1057427 0.11546206
0.039614316 0.117778815 -0.16964242 0.10204628 0.08885571 0.09732252 0.15916108 -0.08670844
0.13197362 0.17035271 0.07427464 -0.023597116 0.058443055 -0.14911301 0.21703729 0.12813623
0.084566064 0.009080443 0.09156737 0.0071843415 -0.1433748 0.12408833 -0.041544598 -0.17187096
00000000: ec51 d3bd 583c d33d 54b4 ea3d bae4 803c
00000010: ee2b 99bc 0538 c83e b30e 1fbc f3c3 2e3d
00000020: 8b6c 263e 9f4a 113e 61e9 b83d ca44 183e
00000030: 26e1 033e ac5b ca3d ed3d 0fbe 7581 00bd
00000040: dea2 0fbd e0c6 c63d 4427 0b3e 8d7e c23d
00000050: d715 b63d 753f d23d 0df6 90be 0207 b2bd
00000060: 17cb 72bd ac6b 8c3d 6db8 1a3c 2e1d c33d
00000070: f98a 043e 2dae 933d 7e3c 8dbd 8d79 23bd
00000080: 0580 943d 5b91 ccbd ab8b e33d c0a6 c63d
00000090: 8c90 ffbc 24a8 263e 66db ce3d 4e3e 113e
000000a0: a49a a0bd 6f3c c33d f60d 3cbe 40b2 2b3c
000000b0: 73c3 d03d ccf1 af3d 7600 ae3d a151 4f3e
000000c0: 93fc a1bd 4a6a 333e b96f 203e 7b72 e73d
000000d0: 63bf d03d a0ba 8cbe 9128 033e 380c c03d
000000e0: afe3 be3d c2d7 52bd 9a16 8a3d ac4a 4cbe
000000f0: d779 22be 0938 be3d a9a7 213e ff5f e73c
00000100: 187c ee3d 502d db3d b767 c93d 750d efbc
00000110: 014c aabd 71cb aa3e 3503 a03c 45e0 db3c
00000120: b6aa 6f3c ba10 a53d 8e43 d03d ba23 d43d
00000130: 4f7c ee3d 9e4f b63d ae9a 3cbe 053b 473e
00000140: 6399 a73d 7283 ee3c 9b45 283e 3649 d73d
00000150: 863e 933d dc17 003e 0b46 9ebc f050 033e
00000160: de76 50bd 5201 a4bd 46ff c5bd 0668 bd3d
00000170: 0321 e73d 8826 b13d 601f eebc 67d0 b1bd
00000180: ca7e e23d 4365 933d 5822 a03d 0bf1 a83d
00000190: 7e77 99bd 8df2 5c3e 92c8 c73d 055f 403e
000001a0: 5fe3 1d3d 9223 bb3d 23c3 91bc 58cd 8cbd
000001b0: f762 b43d 5bd1 c63d 0bad b43d ee6c 773e
000001c0: 8ccb b6bd eefa 663e 1b50 043e e9f6 173e
000001d0: 2d18 c83d 0b99 3e3d 5f0a 043b e0b5 743d
000001e0: a510 ee3d bea3 ba3d cc09 9d3d c18e 2ebe
000001f0: 40cf 52be c852 c23d 8203 263e ba63 193e
00000200: a133 43be 20bc e63c cce0 6e3d f1b2 2abc
00000210: 4334 52bc cb5e a23e 99d3 5bbc 8352 48be
00000220: 722a 29be 29a2 ef3d 2ad7 d83d d70f 553e
00000230: 8021 0b3e c4df fb3d bb80 a9be 5445 1dbe
00000240: 9f8f 7f3d 515c 053e 8778 4e3e 13de f33d
00000250: 5401 fc3d 00c9 983d 518c 38be 0ffb a93d
00000260: 8b18 99bd 0199 c73d 69ca 70be 17bd ec3d
00000270: 48fd aebd 1c6e ba3d 98b6 93bd e7de 933a
00000280: 1bb2 f33d 12d3 813d 37f1 173e db46 1b3e
00000290: 1467 d23d 2da8 83bd 46a8 543d 6933 e63d
000002a0: 219f 5abd 1508 cc3d c94f 9cbd 0917 0abe
000002b0: d3dd f03d 44ea c63d 6b4d 323e 12bb 9cbc
000002c0: 7e1a ab3d 2078 133e 9b88 31bd 9e34 333e
000002d0: 78de ec3d 29e3 72bd dab7 363e c7ad 943d
000002e0: dc49 ea3d 8425 5dbe 5c51 c53d dd4f 623c
000002f0: bd9c 92be 4b9f bb3d 48af 833d 7f3f 7a3e
00000300: f90f 473d f13f 3c3e 7a3b b93d 097c c8bc
00000310: 09db 00be 26e8 6c3e d8a1 a4bd 4eb9 513e
00000320: f746 6b3d cb05 b23d d388 f93d aa69 423e
00000330: 0712 1e3d 1b1f d03d c5b8 0cbe 515b 13bd
00000340: 99ca d03d 9975 e43d cb58 193e 9af4 be3d
00000350: 1df7 ea3d a511 b73d f9c9 6cbd b133 b53d
00000360: 662b 7e3d 2878 c83d 64e7 473a 4f4c 133e
00000370: add8 d3bd d7b1 a93d e300 4a3c 6a42 11bd
00000380: 18cf c33d 8dc7 e83d 26b8 fb3d 754b a93d
00000390: dced 4f3d 8bbb 853d a18f d83d 5f77 ec3d
000003a0: 9f42 223d 0536 f13d beb6 2dbe a4fd d03d
000003b0: fcf9 b53d 0851 c73d 1ffb 223e 3294 b1bd
000003c0: 1824 073e f170 2e3e 4d1d 983d bd4e c1bc
000003d0: fc61 6f3d 15b1 18be 063f 5e3e 2536 033e
000003e0: f930 ad3d 23c6 143c ac87 bb3d a06a eb3b
000003f0: d8d0 12be 0622 fe3d ab2a 2abd f1fe 2fbe

output.bias f4 [4]
0.6666481 0.49847245 0.55069304 0.5271472
00000000: 73a9 2a3f c837 ff3e 38fa 0c3f 1ef3 063f
