checkpoint_signals_delta_update.pth (torch_old, 45539 bytes, 8 tensors)

hidden_layers.0.weight f4 [64, 37]
0	0xbe4cd455	-0.20002873
1	0x3db734c6	0.089456126
2	0xbe28b50e	-0.16475317
3	0x3d7d29dd	0.061807502
4	0x3e004038	0.12524498
5	0xbbce38e3	-0.0062934025
6	0x3e0c9528	0.13728774
7	0x3e0bda64	0.13657528
8	0xbe87ddcd	-0.26536408
9	0xbd30db17	-0.04317769
10	0x3d52059e	0.05127489
11	0xbe0417f6	-0.12899765
12	0xbe495fb7	-0.19665419
13	0xbf01c0da	-0.50684893
14	0xbf248bf3	-0.64276046
15	0x3ddef38e	0.10886298
16	0xbe11d5bd	-0.14241691
17	0xbce8a1ba	-0.02839743
18	0xbc9c8aa3	-0.019109076
19	0xbe107681	-0.14107706
20	0x3e0e722c	0.1391074
21	0xbf5773d5	-0.8416112
22	0xbe2b1e98	-0.1671089
23	0xbe3a257b	-0.1817836
24	0xbf9f6bf1	-1.2454816
25	0x3d9cd41c	0.07657644
26	0xbd96886d	-0.0735024
27	0xbd548ad0	-0.051890194
28	0xbbc163c1	-0.005901784
29	0xbb8bd5f4	-0.0042674486
30	0xbba80bc9	-0.005128358
31	0x3e76595f	0.2405753
32	0xbf05a8a8	-0.52210474
33	0xbf4ff6a7	-0.81235737
34	0xbf28ec4c	-0.6598556
35	0xbe0b8cc9	-0.13627924
36	0xbc834c03	-0.016027456
37	0x3d08b193	0.033372473
38	0x3dba742d	0.0910419
39	0x3d307f76	0.043090306
40	0xbe16acf2	-0.14714411
41	0xbe197524	-0.14986092
42	0xbe1d1405	-0.15339668
43	0xbdb81e37	-0.08990138
44	0xbe42d125	-0.19025095
45	0x3ca9a675	0.020709256
46	0x3e879615	0.2648169
47	0xbc775e14	-0.015098114
48	0xbdcbce31	-0.09951437
49	0xbcfe14be	-0.03101575
50	0x3dc9bc38	0.09850353
51	0x3e98fe26	0.298814
52	0x3e0fb283	0.1403294
53	0x3d837e85	0.06420616
54	0xbe9545f3	-0.2915493
55	0xbe980822	-0.29693705
56	0xbf17728c	-0.5915916
57	0xbe362446	-0.17787275
58	0xbd351378	-0.04420802
59	0xbe949206	-0.29017657
60	0x3da15327	0.07877188
61	0x3ef1916b	0.47181258
62	0xbda0c7e1	-0.07850624
63	0xbd419678	-0.04726264
64	0xbd81609d	-0.06317256
65	0x3ceacc73	0.028661942
66	0xbe05a177	-0.13049875
67	0xbd424ff2	-0.047439523
68	0x3de9d3d9	0.1141736
69	0xbc6514de	-0.013982026
70	0x3e3c9791	0.18417193
71	0x3e906a79	0.28206232
72	0x3c27d023	0.010242495
73	0xb9c8d648	-0.00038306625
74	0x3e1cb860	0.15304708
75	0x3df6bc0b	0.12047585
76	0x3ddd1b22	0.10796191
77	0x3d04d64f	0.032430943
78	0xbcfa0984	-0.030522116
79	0xbf11175b	-0.5667626
80	0x3e430525	0.19044931
81	0x3e475d4d	0.19469185
82	0xbdb4c9b3	-0.088275336
83	0xbf867601	-1.0504762
84	0xbebc8307	-0.36818716
85	0x3d8d44dc	0.068978995
86	0x3df7b527	0.12095099
87	0xbd8f6ea5	-0.07003526
88	0x3e9bfc97	0.30466148
89	0xbe367a90	-0.17820191
90	0x3da9d730	0.08292997
91	0x3e0d6a24	0.1381002
92	0x3d30ac02	0.04313279
93	0x3df2a54c	0.11847934
94	0xbf3a50c2	-0.72779477
95	0x3d218543	0.03943373
96	0x3dc0ec19	0.09420032
97	0x3de845a2	0.113414064
98	0xbf4e3090	-0.8054285
99	0xbe682aed	-0.22672625
100	0x3ea88cee	0.3292002
101	0x3e0f5f5c	0.1400122
102	0xbd9dc133	-0.077028655
103	0xbe9bef90	-0.3045621
104	0xbf4d2432	-0.80133355
105	0x3e962bf3	0.29330406
106	0xbd0d4052	-0.03448517
107	0xbdfd8927	-0.12379675
108	0xbf5f09b3	-0.87124175
109	0xbd3efb16	-0.046626173
110	0xbcc502c1	-0.024049165
111	0x3e3dd801	0.1853943
112	0xbe75cc3c	-0.2400369
113	0x3e06a65f	0.13149403
114	0xbe5591ee	-0.20856449
115	0xbdd08a1c	-0.10182592
116	0x3bf9f16a	0.0076276558
117	0xbe94fd6a	-0.2909959
118	0x3d32c56e	0.043645315
119	0x3d44ad62	0.048016913
120	0xbec19559	-0.37809256
121	0x3df477ab	0.11936887
122	0xbe904d31	-0.28183892
123	0xbe8f7652	-0.2801996
124	0xbe6d0361	-0.2314582
125	0xbfa51f09	-1.2900096
126	0xbc99de3f	-0.018782733
127	0xbcce0ca7	-0.025152517
128	0xbdc14ac2	-0.09438087
129	0xbf0983d6	-0.5371679
130	0xbdbf2b5d	-0.09334443
131	0x3d597858	0.053093284
132	0xbd968887	-0.07350259
133	0xbde0043e	-0.10938309
134	0x3e40a64f	0.18813442
135	0xbf870fad	-1.0551659
136	0xbc8cbd84	-0.017180212
137	0xbd82c49d	-0.06385157
138	0xbebf1aa3	-0.3732501
139	0x3e938621	0.2881327
140	0xbcf635a7	-0.03005488
141	0x3e3f262c	0.18666905
142	0xbd98841b	-0.07447072
143	0xbeac442f	-0.3364577
144	0xbe852f0f	-0.26012465
145	0xbf720b67	-0.9454865
146	0x3c83a5ae	0.016070213
147	0xbbcea2e9	-0.0063060415
148	0xbe72f22b	-0.23725192
149	0xbe1c442f	-0.15260385
150	0xbe31fc3c	-0.17381376
151	0xbdd011c7	-0.10159641
152	0x3cc28be6	0.02374835
153	0x3e033fba	0.12817279
154	0xbe2c8c70	-0.16850448
155	0xbd273a66	-0.040827177
156	0xbdbad3f1	-0.09122456
157	0xbdaa14ea	-0.0830477
158	0xbdb44e68	-0.08804017
159	0xbd8b36f9	-0.067975946
160	0xbd9c5248	-0.076328814
161	0x3d983e0c	0.074337095
162	0x3d74eaa2	0.059794076
163	0xbe619cc7	-0.22032462
164	0xbe27e01c	-0.16394085
165	0xbd7f947a	-0.062397458
166	0x3e3eb49c	0.18623585
167	0x3efb6b45	0.49105278
168	0xbe11f8c9	-0.1425506
169	0x3bdf0b45	0.0068067634
170	0xbd2be368	-0.04196492
171	0x3d4a0fff	0.04933166
172	0x3e53ed0c	0.20695895
173	0xbda46ccc	-0.08028564
174	0xbe3d2ef6	-0.18474945
175	0x3d55461d	0.05206882
176	0x3e7e136d	0.24812098
177	0x3eb17f7d	0.34667578
178	0xbd243e28	-0.04009834
179	0xbe8cbb63	-0.27486715
180	0xba562ce5	-0.0008170142
181	0x3e919cfe	0.28440088
182	0x3f2469f7	0.6422419
183	0xbcbd64cd	-0.023119355
184	0xbd0ffcd2	-0.035153218
185	0x3a4ccbc0	0.00078123435
186	0xbc8d5014	-0.017250098
187	0x3cc94096	0.02456693
188	0x3d78981a	0.06069193
189	0x3deab65e	0.11460565
190	0x3e9d2557	0.3069255
191	0xbed2b228	-0.41151547
192	0xbe80e800	-0.25177002
193	0xbddc0e9e	-0.107449755
194	0xc00e3405	-2.221925
195	0xbc453f32	-0.012038993
196	0xbd1a28e2	-0.037636645
197	0x3d8e97a8	0.0696252
198	0xbd82b563	-0.06382253
199	0xbc4a2196	-0.012337109
200	0xbce5b5db	-0.028040817
201	0x3da0663b	0.07831999
202	0xbb46490c	-0.0030255942
203	0xbdc69cae	-0.09697853
204	0xbdfb9183	-0.122836135
205	0x3dac72a4	0.084203035
206	0x3e02a8fe	0.12759778
207	0x3e21d4f4	0.15803891
208	0x3e185c22	0.14878896
209	0xbb2f1614	-0.002671604
210	0x3d49e1cc	0.049287602
211	0x3d253eb7	0.040343013
212	0x3cacec84	0.021108873
213	0xbd35e2c2	-0.044405706
214	0xbe9215d4	-0.2853228
215	0x3d80ae5a	0.06283255
216	0x3d7b40ad	0.061340977
217	0xbcc6d8e3	-0.024273342
218	0xbe32bd4c	-0.17455024
219	0xbfb653a2	-1.4244273
220	0x3cf2788e	0.0295985
221	0x3c95d712	0.01829103
222	0x3ed7a737	0.42119762
223	0xbed64c1b	-0.4185494
224	0xbedc0e14	-0.4297949
225	0xbde4716d	-0.11154447
226	0xbfa2d8e4	-1.272244
227	0xbe14c18d	-0.14526959
228	0xbe189bcf	-0.14903186
229	0xbb619613	-0.0034421727
230	0x3e3c5df1	0.18395211
231	0x3eaea254	0.34108222
232	0xbd935416	-0.071937725
233	0x3d8266bb	0.063672505
234	0x3e09287c	0.1339435
235	0x3e70f787	0.23531924
236	0x3e328a76	0.17435631
237	0xbdbaab0f	-0.09114658
238	0x3d5fa61b	0.05460177
239	0x3d053a90	0.032526553
240	0xbc80dc5c	-0.015730076
241	0x3e3d5fee	0.18493626
242	0xbdef95db	-0.116985045
243	0xbd00807f	-0.031372543
244	0xbce79da2	-0.028273407
245	0xbcce1f0f	-0.025161294
246	0xbc62c28d	-0.01384033
247	0xbdce5fdc	-0.100768775
248	0x3cff44a5	0.031160662
249	0xbdfb581e	-0.122726664
250	0xbddde260	-0.10834193
251	0xbdbaf957	-0.09129589
252	0xbcb95fcc	-0.022628687
253	0xbd06f799	-0.03295097
254	0xbd7e86f2	-0.062140413
255	0xbc834128	-0.01602228

hidden_layers.0.bias f4 [64]
0	0x3df50552	0.119639054
1	0xbe04fbaf	-0.12986635
2	0xbdb064e0	-0.086129904
3	0xbd751274	-0.05983205
4	0x3d3c5521	0.045979623
5	0x3d89ed68	0.06734735
6	0xbdfd38a9	-0.12364323
7	0xbd4f5269	-0.0506157
8	0xbca6e476	-0.02037261
9	0xbec24bc7	-0.3794844
10	0x3e1de7c3	0.15420441
11	0x3d32cef6	0.043654405
12	0xbd02b19b	-0.03190766
13	0x3d41c7ae	0.04730957
14	0xbe4e54aa	-0.20149484
15	0xbe44f951	-0.19235732
16	0xbcb7e251	-0.022446783
17	0xbd5df340	-0.05418706
18	0xbd14853a	-0.036259867
19	0xbe5652ba	-0.20929995
20	0xbe476961	-0.19473793
21	0xbd642623	-0.055700433
22	0xbe0daea5	-0.13836153
23	0xbe3fbf6f	-0.1872537
24	0xbd17348c	-0.036915347
25	0x3e26975f	0.16268681
26	0x3d83f17a	0.064425424
27	0xbe7c7d7f	-0.24657248
28	0x3df66484	0.120308906
29	0x3e2e45c3	0.170188
30	0xbe3b1fe9	-0.18273892
31	0xbe2dbb36	-0.16965947
32	0x3e2bd3a3	0.16779952
33	0xbca42d3f	-0.020041106
34	0xbe542a20	-0.20719194
35	0xbccd1f63	-0.02503938
36	0xbdd43f0c	-0.10363588
37	0x3cc69eb9	0.024245607
38	0xbdfbd25f	-0.122959845
39	0xbe89d8d2	-0.26923233
40	0xbdb00e15	-0.08596436
41	0x3cb188d4	0.02167169
42	0xbe21c3b5	-0.15797313
43	0x3d121523	0.03566469
44	0xbdc1eecb	-0.09469374
45	0xbe70012a	-0.23437944
46	0xbdcb5c62	-0.0992973
47	0xbd9a9d9e	-0.07549594
48	0xbd90d585	-0.070719756
49	0xbd8eda08	-0.0697518
50	0xbe9c155d	-0.3048505
51	0xbe300dc3	-0.1719275
52	0xbbe66aee	-0.00703179
53	0xbcad12c3	-0.02112711
54	0xbe96df40	-0.294672
55	0xbcf85594	-0.030314244
56	0x3d09de17	0.033659067
57	0xbdebf8bf	-0.11522054
58	0xbd5dbb1a	-0.054133512
59	0xbe50fa66	-0.2040802
60	0xbda71a7c	-0.08159348
61	0x3de1cfc3	0.110259555
62	0xbe018606	-0.12648782
63	0xbe221543	-0.15828423

hidden_layers.1.weight f4 [64, 64]
0	0xbe676ba0	-0.2259965
1	0xbe4de81b	-0.20108072
2	0xb9b483b3	-0.000344304
3	0x3e040c32	0.12895277
4	0x3c79bf35	0.015243341
5	0xbd1a3690	-0.03764969
6	0xbda4cb1b	-0.08046552
7	0x3d639085	0.055557746
8	0xbdbd62d1	-0.09247363
9	0xbe966fa8	-0.29382062
10	0x3ca0e7c9	0.019641774
11	0xbed7e178	-0.42164207
12	0xbec9c6fc	-0.39409626
13	0x3ea584d6	0.32327908
14	0xbec70ffa	-0.38879377
15	0xbdb10ad6	-0.08644645
16	0xbefd0a4b	-0.49421915
17	0xbe2dd67f	-0.16976355
18	0xbe31bf69	-0.17358173
19	0xbd92c60e	-0.07166682
20	0xbe388ede	-0.1802325
21	0xbde211f4	-0.110385805
22	0x3d74b89c	0.05974637
23	0xbe1d814a	-0.15381351
24	0xbe81d4bf	-0.25357625
25	0x3d4d5592	0.050130434
26	0x3e7bdc41	0.24595739
27	0x3e46db53	0.19419603
28	0x3cfa544f	0.03055778
29	0xbdb8a360	-0.09015536
30	0xbe8443fd	-0.2583312
31	0xbe77488e	-0.24148771
32	0x3ec8b2e0	0.3919897
33	0xbe1e4a6f	-0.15458082
34	0x3e297858	0.16549814
35	0xbe90f59d	-0.28312388
36	0x3cd575db	0.026057174
37	0xbe263ded	-0.1623456
38	0xbe1b6208	-0.15174115
39	0xbf0de97d	-0.554344
40	0xbea26322	-0.31716257
41	0xbe20443f	-0.15651034
42	0x3d55093e	0.052010767
43	0xbe8b33c7	-0.2718794
44	0x3d2a3f31	0.04156417
45	0xbe694944	-0.22781855
46	0xbed2ffb1	-0.41210702
47	0xbbab1652	-0.0052211666
48	0xbeaf5a97	-0.34248802
49	0xbf24d1f5	-0.6438287
50	0xbce8f0d3	-0.028435146
51	0xbefaef5a	-0.49010736
52	0xbe856f6f	-0.2606158
53	0xbe310fd7	-0.17291199
54	0xbd5f5f57	-0.054534283
55	0xbe83bcac	-0.25729883
56	0xbd12fa3d	-0.035883177
57	0x3e2cb979	0.16867627
58	0xbe13b00c	-0.14422625
59	0xbd7ef27a	-0.062242962
60	0x3c94224c	0.01808276
61	0xbe25db23	-0.16196875
62	0xbebd1a63	-0.36934194
63	0x3dc6c441	0.09705401
64	0xbbc7c2e1	-0.0060962294
65	0x3c310f12	0.010806816
66	0xbd825d7f	-0.06365489
67	0x3e595daa	0.21227136
68	0x3dde5f8f	0.1085807
69	0x3e5ea2c9	0.21741785
70	0xbec15e4c	-0.37767255
71	0x3e575166	0.21027145
72	0x3d4324a7	0.047642376
73	0xbd2c6dbd	-0.042096842
74	0x3e659cce	0.22423097
75	0xbb71764d	-0.0036844194
76	0xbea2a167	-0.31763765
77	0x3e84ca68	0.25935674
78	0xbea552aa	-0.3228963
79	0x3c55727d	0.013027784
80	0x3da93171	0.08261383
81	0xbdd6e11c	-0.10492155
82	0xbda5aa39	-0.08089108
83	0x3bbdf4aa	0.0057969885
84	0x3d77896c	0.06043379
85	0xbc388e03	-0.011264327
86	0xbeca6ec2	-0.39537627
87	0xbc956bfd	-0.01823997
88	0xbd53e238	-0.05172941
89	0x3dedc00a	0.11608894
90	0xbe19528d	-0.14972897
91	0xbd2e26b5	-0.042517383
92	0x3ceb5865	0.028728673
93	0xbd3fd46a	-0.046833433
94	0xbdc96ec3	-0.09835579
95	0xbdbbd758	-0.09171933
96	0xbbc47955	-0.005995909
97	0xbe5fe6e5	-0.21865423
98	0x3dd314d3	0.10306706
99	0xbddf7e08	-0.109127104
100	0xbe240ad9	-0.16019763
101	0xbd88c574	-0.06678286
102	0xbd09d2cb	-0.033648293
103	0xbe6567f3	-0.22402935
104	0xbe23019c	-0.15918583
105	0xbda4eec7	-0.08053356
106	0xbd68e545	-0.056859273
107	0xbe8beb4d	-0.27327958
108	0x3d8a253b	0.067453824
109	0xbd195762	-0.03743685
110	0xbeaf3939	-0.34223345
111	0x3d73ec67	0.059551623
112	0xbdb8a5e1	-0.09016014
113	0xbe9fe7cb	-0.31231532
114	0x3c77ba29	0.015120068
115	0xbe0f98f8	-0.14023197
116	0x3d436b26	0.047709607
117	0x3d456372	0.04819054
118	0xbea352be	-0.31899065
119	0x3d3daa84	0.046305194
120	0x3c19a622	0.009377988
121	0x3d8fed9c	0.07027742
122	0x3e41fdbe	0.18944451
123	0xbdcac4df	-0.099008314
124	0xb81c2814	-3.7230624e-05
125	0xbb6b6f08	-0.0035924334
126	0xbe814669	-0.2524903
127	0x3c3da619	0.011575245
128	0xbef849ea	-0.48493892
129	0xbe299cf1	-0.16563775
130	0x3e12f94b	0.1435291
131	0xbe5b532b	-0.21418445
132	0x3d25a2e6	0.040438555
133	0x3ce1a4d7	0.027544422
134	0xbe181988	-0.1485349
135	0xbdba8060	-0.09106517
136	0x3ba42802	0.005009652
137	0xbe836bc4	-0.25668156
138	0x3ad9700d	0.001658918
139	0x3e3c0149	0.18359865
140	0x3dee0f25	0.11623982
141	0xbdcd0657	-0.10010975
142	0x3e65b8be	0.22433755
143	0x3d651950	0.055932343
144	0xbea6a655	-0.32548776
145	0xbe3133be	-0.17304894
146	0x3d15430c	0.036440894
147	0xbc9a409c	-0.018829636
148	0xbee2f10d	-0.44324532
149	0xbd3e1d73	-0.046414804
150	0x3d58c128	0.052918583
151	0x3aa70856	0.0012743573
152	0xbe571b74	-0.21006566
153	0xbe379d17	-0.17931019
154	0xbc02b91f	-0.007978707
155	0x3d24155a	0.040059425
156	0xbeb45618	-0.35221934
157	0xbdb5a27f	-0.08868884
158	0x3b20941a	0.0024502338
159	0x3df2de23	0.118587755
160	0xbe11a437	-0.14222799
161	0xbdeab495	-0.114602245
162	0xbdaccb10	-0.084371686
163	0x3de2766d	0.11057744
164	0xbec083c4	-0.3760053
165	0xbdae70dd	-0.08517621
166	0xbd06ff23	-0.03295816
167	0xbce8e054	-0.02842728
168	0x3e0a425e	0.1350188
169	0xbe0d5ca2	-0.13804868
170	0xbe46993e	-0.19394395
171	0xbd3b937d	-0.045794953
172	0xbd597a7f	-0.053095337
173	0xbb1e64c5	-0.002416895
174	0x3c6aa435	0.014321377
175	0xbd623da6	-0.055234574
176	0xbeba6dc1	-0.3641186
177	0xbe862220	-0.2619791
178	0xbe0a09f0	-0.13480353
179	0x3e26884e	0.16262934
180	0x3d0c68a8	0.034279495
181	0xbd99e45b	-0.075142585
182	0x3db44c5c	0.08803627
183	0xbecf83e3	-0.4053031
184	0xbe27bff5	-0.1638182
185	0xbd061572	-0.032735296
186	0xbe5e0ab9	-0.21683778
187	0x3e8f7a54	0.28023016
188	0xbddc3b8f	-0.107535474
189	0xbe804467	-0.25052187
190	0x3e01f227	0.1269003
191	0xbcb3282d	-0.021869743
192	0xbe34bd38	-0.17650306
193	0x3e03de78	0.12877834
194	0xbe0d4d38	-0.13798988
195	0x3daa1083	0.083039306
196	0xbdcf93d2	-0.10135616
197	0xbce4ac26	-0.027914118
198	0x3e2347ca	0.15945354
199	0x3c542cd9	0.012950146
200	0xbda3e906	-0.0800343
201	0xbc8e95c3	-0.017405396
202	0xbe51c769	-0.20486225
203	0x3df725fc	0.12067792
204	0x3c29d96f	0.010366782
205	0xbbf76f6f	-0.0075511257
206	0x3caa277e	0.020770784
207	0xbebf4435	-0.37356725
208	0x3e0dfade	0.1386523
209	0xbe08c481	-0.1335621
210	0xbee51b04	-0.44747174
211	0xbe2ff16b	-0.17181937
212	0x3e14a49d	0.1451592
213	0x3dd79188	0.10525805
214	0x3e192a2c	0.14957494
215	0x3c774b86	0.01509369
216	0xbb39ada0	-0.0028332248
217	0xbe1c4a70	-0.1526277
218	0x3e26af66	0.16277847
219	0x3c8f9d88	0.017531171
220	0x3e2ba0b3	0.1676052
221	0xbe5fe553	-0.21864824
222	0x3dd7e812	0.10542311
223	0xbef189e6	-0.4717552
224	0x3da50281	0.08057118
225	0x3e84d3a2	0.25942713
226	0xbbb786ff	-0.0056008096
227	0x3e58711f	0.21136902
228	0x3e70d6d3	0.23519449
229	0x3ea62d5d	0.32456484
230	0x3de2a095	0.11065785
231	0x3d809ff1	0.062805064
232	0x3d1bc1b4	0.038026527
233	0x3e96b531	0.29435113
234	0xbe26fc1a	-0.16307107
235	0x3cca5249	0.02469744
236	0xbe2590ac	-0.16168469
237	0xbd1e2a33	-0.038614463
238	0x3d884cad	0.0665525
239	0x3cbb6eb1	0.02287993
240	0x3da903f5	0.08252708
241	0x3c8495a4	0.016184635
242	0x3989271f	0.00026159824
243	0xbb8eaa84	-0.004353823
244	0xbefd607d	-0.49487677
245	0x3db0473e	0.08607338
246	0x3bcc5a7f	0.006236374
247	0x3e2b4a1f	0.16727494
248	0xbe227be2	-0.1586757
249	0xbc03f415	-0.008053799
250	0xbe762c01	-0.24040224
251	0xbdc111ea	-0.09427245
252	0x3d936c76	0.07198422
253	0x3e12bd2a	0.14329973
254	0xbe3107e2	-0.17288163
255	0xbddc59b6	-0.107592985

hidden_layers.1.bias f4 [64]
0	0xbd3cd258	-0.046099037
1	0x3b2d302b	0.0026426415
2	0x3ca4e79a	0.020129967
3	0xbcf9285f	-0.030414758
4	0xbd3234eb	-0.043507498
5	0xbe5a6af2	-0.21329859
6	0xbe0cd0e0	-0.13751554
7	0x3cb52a7a	0.022114981
8	0xbc92290f	-0.017841844
9	0x3d0ddcae	0.034634285
10	0x3dee6684	0.11640647
11	0x3caf9048	0.021431103
12	0xbc5c10d7	-0.013431749
13	0xbe03e48f	-0.12880157
14	0xbe09cfc4	-0.13458163
15	0xbd46644b	-0.04843549
16	0xbd9b3028	-0.075775445
17	0xbe038970	-0.12845397
18	0x3cb16590	0.021654874
19	0xbc0c70a6	-0.008571779
20	0xbba4c0c8	-0.005027864
21	0x3e1db1dd	0.1539988
22	0x3da99f23	0.08282306
23	0xbdb7be4e	-0.089718446
24	0xbd9b9ad4	-0.075978905
25	0xbd1d5ce9	-0.038418684
26	0x3df4166a	0.11918338
27	0xbde7cf92	-0.11318888
28	0x3da12c8f	0.07869827
29	0xbce5af61	-0.028037729
30	0x3d02db69	0.031947527
31	0xbded9149	-0.115999766
32	0x3c9597fa	0.018260945
33	0x3e046054	0.12927371
34	0x3ce7271b	0.02821689
35	0xbe03a742	-0.12856773
36	0xbb976609	-0.004620318
37	0x3ca79839	0.020458328
38	0x3d71ef07	0.059065845
39	0xbd11fd1a	-0.035641767
40	0x3d41671b	0.04721747
41	0x3cd1fa9d	0.025632197
42	0xbd81d962	-0.063402906
43	0xbc70c115	-0.014694472
44	0x3d1f41b3	0.038881015
45	0xbd9f458a	-0.077769354
46	0xbd6c2ef9	-0.057661984
47	0xbe434d4f	-0.1907246
48	0x3e127ba2	0.14304975
49	0x3d658f7c	0.05604504
50	0xbe40c68e	-0.18825743
51	0x3d44580a	0.047935523
52	0x3d06c4a0	0.03290236
53	0x3d9a7975	0.07542697
54	0x3ddfcaed	0.10927377
55	0xbdfd0906	-0.12355237
56	0xbd884e48	-0.06655556
57	0xbdab1dcb	-0.08355292
58	0x3e410f70	0.18853545
59	0xbc64f026	-0.0139732715
60	0xbd0f138e	-0.03493076
61	0xbc5ba7d0	-0.013406709
62	0x3ca58640	0.020205617
63	0xbd045397	-0.03230628

hidden_layers.2.weight f4 [64, 64]
0	0xbe118254	-0.14209872
1	0xbe2f93fb	-0.17146294
2	0x3ec411d5	0.38294855
3	0xbded81ee	-0.11597048
4	0x3e466121	0.19372989
5	0x3d4934ec	0.049122736
6	0x3df3349c	0.11875269
7	0x3c105bad	0.00881092
8	0xbd956c94	-0.072961
9	0x3e5bee86	0.21477708
10	0x3db6389a	0.08897515
11	0x3dab1cf7	0.08355134
12	0xbd47a412	-0.048740454
13	0xbec6d02f	-0.38830706
14	0xbcf94fcb	-0.030433556
15	0xbca61097	-0.020271583
16	0xbd0309f0	-0.0319919
17	0x3e15ac5c	0.14616531
18	0xbe8bf774	-0.2733723
19	0x3e373537	0.17891394
20	0xbe45a7eb	-0.19302337
21	0xbdfbbb67	-0.122916035
22	0xbd1e62f3	-0.038668584
23	0x3d827608	0.06370169
24	0xbe6fb503	-0.23408894
25	0x3d12c11c	0.035828695
26	0xbdc35ac9	-0.095388
27	0xbd1d83b0	-0.038455665
28	0xbd8e261a	-0.06940861
29	0xbd4635d8	-0.048391193
30	0x3ced6377	0.028978093
31	0x3e804789	0.25054577
32	0x3cb750c9	0.022377389
33	0xbd0a5b8c	-0.033778712
34	0xbe16d9cc	-0.1473152
35	0xbd2920a3	-0.04129089
36	0xbd3547be	-0.04425787
37	0xbe89fbdb	-0.26949963
38	0x3de8c2a6	0.11365251
39	0x3e2712ce	0.16315767
40	0x3d804b21	0.0626433
41	0xbe2c88b6	-0.16849026
42	0x3d907307	0.0705319
43	0xbdc27b97	-0.09496229
44	0x3e39cf8a	0.18145576
45	0x3d9d5d99	0.07683868
46	0x3df62c1c	0.12020132
47	0x3b3054df	0.0026906056
48	0xbe7f56af	-0.24935411
49	0x3db6ad8c	0.0891982
50	0xbd20653d	-0.03915905
51	0x3e8a97f8	0.27069068
52	0x3c210819	0.009828591
53	0x3c03c7cc	0.008043241
54	0x3e111f46	0.14172086
55	0xbeaab6c6	-0.3334257
56	0xbd6a0ff8	-0.057144135
57	0x3cae0be3	0.021245902
58	0xbd66f179	-0.05638263
59	0x3d9e12b2	0.077184096
60	0xbe1479ab	-0.14499538
61	0x3e775fd6	0.24157652
62	0xbd07f437	-0.033191886
63	0xbdcfc1e6	-0.10144405
64	0x3d04bf4b	0.032408994
65	0xbd7b222f	-0.061311897
66	0xbe6097f1	-0.21932961
67	0x3ded9a85	0.11601738
68	0xbdddde24	-0.108333856
69	0x3e1e211a	0.15442315
70	0x3b64efb6	0.0034932918
71	0x3d00093e	0.031258814
72	0x3b8b256c	0.0042464044
73	0xbde2cbf6	-0.11074059
74	0x3cc7588a	0.02433421
75	0x3df15560	0.11783862
76	0xbe93770f	-0.28801772
77	0x3dc3f15b	0.09567519
78	0x3d0ad13f	0.03389096
79	0x3e0e76a9	0.13912453
80	0xbdd86c88	-0.10567576
81	0xbde2e486	-0.11078744
82	0xbeb8b4c4	-0.36075413
83	0x3d2cf7bb	0.04222844
84	0xbcefd6d6	-0.029277246
85	0x3dd0f708	0.102033675
86	0xbef2d1b3	-0.47425613
87	0xbd208022	-0.039184697
88	0x3e162489	0.14662375
89	0xbec3061e	-0.38090605
90	0xbe84a241	-0.2590504
91	0xbc867162	-0.016411487
92	0xbd15190b	-0.036400836
93	0x3d721775	0.0591044
94	0x3dda1510	0.106485486
95	0x3d45bd8a	0.04827646
96	0x3e16cf6b	0.14727561
97	0xbe89fcea	-0.2695077
98	0x3e884673	0.26616248
99	0x3d465f1f	0.04843056
100	0x3d44e788	0.048072368
101	0xbe6bc266	-0.23023376
102	0x3c08317c	0.008312579
103	0xbdae79b7	-0.08519309
104	0x3deb1e04	0.114803344
105	0x3e0fb4ca	0.1403381
106	0xbe07dcb7	-0.1326779
107	0x3dc2a838	0.095047414
108	0xbccaf9d0	-0.024777323
109	0xbe43b334	-0.1911133
110	0x3dd7950d	0.10526476
111	0x3cc0d0a6	0.023536991
112	0x3e052f69	0.13006367
113	0x3df4b10f	0.11947834
114	0x3ceb70e3	0.028740352
115	0x3e3d58b0	0.18490863
116	0xbdd6bcf4	-0.10485259
117	0x3d76635e	0.060153358
118	0xbd3c61c8	-0.04599169
119	0xbca3c9c1	-0.019993665
120	0x3daa8740	0.08326578
121	0x3d4547f2	0.048164316
122	0xbd8774a4	-0.06614044
123	0xbc964d33	-0.018347358
124	0xbc6a14c1	-0.014287175
125	0xbe8bd8b7	-0.27313778
126	0x3c546b3e	0.012965022
127	0x3d4e9009	0.05043033
128	0xbeca0d43	-0.39463243
129	0xbbea561e	-0.0071513792
130	0xbd86d350	-0.065832734
131	0x3e1c774f	0.15279888
132	0xbab88d41	-0.0014080183
133	0x3d77f191	0.06053311
134	0x3e06ef8c	0.13177317
135	0x3e00342b	0.125199
136	0x3e04f4a4	0.12983948
137	0xbd850909	-0.06495864
138	0xbe36aa00	-0.17838287
139	0x3dcef2a2	0.10104872
140	0xbcdbff59	-0.026855158
141	0x3bb6db3c	0.005580334
142	0xbda69217	-0.08133333
143	0x3d9019f0	0.07036197
144	0x3d32c47f	0.043644425
145	0xbe37e26d	-0.17957468
146	0xbe23595d	-0.15952058
147	0xbd79ffa4	-0.061034814
148	0xbd510274	-0.05102773
149	0x3d66085b	0.056160312
150	0xbe1d76ae	-0.15377304
151	0x3c897d0d	0.016783262
152	0x3bf6ea1a	0.0075352313
153	0xbe316178	-0.17322338
154	0xbe558020	-0.20849657
155	0xbd16f937	-0.036858764
156	0x3d75dd05	0.060025234
157	0x3c816626	0.015795778
158	0xbc23bba9	-0.009993472
159	0xbe078779	-0.13235272
160	0xbdedffab	-0.116210304
161	0xbd695da0	-0.056974053
162	0x3e409e1a	0.18810311
163	0x3e9df2c6	0.30849284
164	0x3dd23a1f	0.10264992
165	0xbe022907	-0.12710963
166	0x3e2fe4f4	0.17177182
167	0x3c17db06	0.009268528
168	0xbb8c0874	-0.0042734686
169	0x3e0648ce	0.1311371
170	0x3c4e232b	0.012581627
171	0x3dc2910a	0.0950032
172	0x3d29611f	0.041352388
173	0xbb978cb1	-0.004624926
174	0xbe32158e	-0.17391035
175	0x3e1cb42e	0.15303108
176	0x3de5d69a	0.112225726
177	0xbd503f41	-0.050841574
178	0xbd277f8c	-0.040893123
179	0x3e33808b	0.17529504
180	0xbe01dddd	-0.1268229
181	0x3de5b0cf	0.11215364
182	0xbce20b86	-0.027593385
183	0x3e0015be	0.12508294
184	0x3deea13c	0.11651847
185	0x3ca13571	0.019678803
186	0xbc085f23	-0.008323464
187	0xbaf502b3	-0.0018692821
188	0xbdca9965	-0.09892539
189	0xbe342828	-0.17593443
190	0x3cfb7462	0.030695144
191	0x3d96634d	0.07343159
192	0x3d02225f	0.03177106
193	0x3dcbc97b	0.09950539
194	0xbd93e7b1	-0.07221926
195	0xbdefb80c	-0.11705026
196	0x3df13498	0.117776096
197	0x3e08b80f	0.13351463
198	0xbd5b8eb0	-0.053602874
199	0x3dde0231	0.10840262
200	0x3c9815a3	0.018565005
201	0x3e0e7541	0.13911916
202	0x3db6f2b6	0.08933012
203	0x3e71d805	0.23617561
204	0xbd2d9605	-0.042379398
205	0xbe0b1173	-0.13580875
206	0x3d16ce52	0.036817856
207	0xbe292011	-0.16516139
208	0x3df07072	0.11740197
209	0x3dde33c2	0.10849716
210	0xbe7910dd	-0.24322839
211	0x3e54d268	0.20783389
212	0x3cd11436	0.025522333
213	0x3c7251a9	0.014789977
214	0xbe6b2ea6	-0.22967014
215	0x3e167a9c	0.1469521
216	0xbc83e598	-0.01610069
217	0xbe1649f4	-0.14676648
218	0xbd4ca73e	-0.049964182
219	0x3bab4324	0.0052265096
220	0x3e0a6e6e	0.13518688
221	0xbd30a090	-0.043121874
222	0x3cd83125	0.026390621
223	0x3db3c001	0.08776856
224	0x3c17a410	0.009255424
225	0xbe51f698	-0.20504224
226	0xbe59732e	-0.21235344
227	0x3e30d051	0.17266966
228	0xbdb07537	-0.08616107
229	0xbe4c6088	-0.19958699
230	0x3d8d640f	0.0690385
231	0x3e2d5ff4	0.16931134
232	0xbf10b910	-0.5653238
233	0x3e60a355	0.21937306
234	0x3e32261a	0.17397347
235	0xbe824f62	-0.2545119
236	0x3df5cf23	0.12002399
237	0xbe01278b	-0.1261274
238	0x3db189c6	0.08668856
239	0xbdd54047	-0.104126506
240	0xbe5d13a8	-0.2158953
241	0xbebceae2	-0.3689795
242	0x3dca580c	0.09880075
243	0x3d920174	0.071291834
244	0xbe4d5804	-0.20053107
245	0xbc137e9d	-0.009002355
246	0x3d2cf840	0.042228937
247	0x3e4cc470	0.1999681
248	0xbdc5b8f4	-0.09654418
249	0xbe83049c	-0.25589454
250	0xbe7c9d3a	-0.24669352
251	0xbe24c8d9	-0.16092242
252	0xbe560923	-0.20901923
253	0x3e2f4e54	0.17119724
254	0xbd3ae327	-0.045626786
255	0x3e4963a7	0.1966692

hidden_layers.2.bias f4 [64]
0	0x3cd93d66	0.026518535
1	0x3e0bca7f	0.13651465
2	0x3e167db5	0.14696391
3	0x3ce4c1d5	0.027924458
4	0xbe17cb2a	-0.14823595
5	0x3ca1de32	0.019759271
6	0xbcfc2d0b	-0.030783197
7	0x3e40628a	0.1878759
8	0xbd4b0051	-0.04956085
9	0x3e50df3c	0.20397657
10	0x3e3922d1	0.18079688
11	0x3c978004	0.01849366
12	0x3e5df9ec	0.21677369
13	0x3e344bc3	0.17607026
14	0x3e15324d	0.1456997
15	0xbce38c43	-0.027776843
16	0xbe32dd5a	-0.17467251
17	0xbd011727	-0.03151622
18	0x3e16854a	0.14699283
19	0x3e2fb81c	0.17160076
20	0x3e252748	0.16128266
21	0x3e3c2b29	0.1837584
22	0x3e3b996d	0.18320246
23	0x3e2becee	0.167896
24	0xbe3984f6	-0.18117127
25	0xbdac9333	-0.084265135
26	0xbded4260	-0.11584926
27	0x3e127ba0	0.14304972
28	0x3e18d867	0.14926301
29	0x3e4718b6	0.1944302
30	0xbeb82e11	-0.35972646
31	0x3dc1eed3	0.0946938
32	0x3cbde118	0.023178622
33	0x3db5fdae	0.08886276
34	0x3e2e9b82	0.17051509
35	0x3df91aa8	0.121632874
36	0x3d2faf20	0.04289162
37	0x3e4be26d	0.19910593
38	0x3e0d2ae7	0.13785897
39	0xbe2c49fa	-0.16825095
40	0xbd917f8f	-0.07104408
41	0x3e35dd2d	0.17760153
42	0xbd8772c6	-0.06613688
43	0xbdd4a3fd	-0.10382841
44	0x3e1a27bd	0.15054221
45	0xbcdf00a0	-0.027221978
46	0xbc681593	-0.0141653
47	0x3d1a99f5	0.03774448
48	0xbe0b314c	-0.13593024
49	0x3e224d11	0.15849711
50	0x3e5ac1d8	0.21363008
51	0x3e1107d8	0.14163148
52	0xbe36857b	-0.17824356
53	0x3e07feba	0.13280764
54	0x3e520559	0.20509852
55	0x3e2fc156	0.17163596
56	0x3e4f21d2	0.20227745
57	0x3df80923	0.12111118
58	0x3e69939c	0.22810215
59	0x3df7868a	0.12086208
60	0xbd88b777	-0.06675618
61	0x3e4772a9	0.19477333
62	0x3ced871f	0.028995095
63	0xbdf2682b	-0.11836275

output.weight f4 [4, 64]
0	0xbddef7c2	-0.108871
1	0x3db5b81f	0.08873009
2	0x3dce1f33	0.100645445
3	0x3e2c667d	0.16835971
4	0x3c1b3190	0.009472266
5	0x3e592325	0.21204813
6	0xbde47eae	-0.11156975
7	0x3db50d6a	0.08840449
8	0x3e1e3492	0.15449741
9	0x3db62ce0	0.08895278
10	0x3dd19b8d	0.10234747
11	0x3e6042db	0.21900503
12	0x3defcee7	0.11709385
13	0x3dd669c8	0.10469395
14	0xbe5d0f24	-0.21587807
15	0xbe8f2216	-0.27955693
16	0xbd39cc9a	-0.04536114
17	0xbddb312c	-0.10702738
18	0x3e2b18d6	0.16708693
19	0x3db374da	0.08762522
20	0x3df9cce2	0.121972814
21	0x3d91bd56	0.07116191
22	0x3db5e341	0.08881236
23	0x3e1801f2	0.14844492
24	0xbdbffd55	-0.09374491
25	0xbcfe03cc	-0.03100767
26	0xbd6d5293	-0.057940077
27	0x3dda6ce7	0.10665303
28	0x3e34dfef	0.17663549
29	0x3dfff594	0.12498012
30	0xbe757d98	-0.23973691
31	0x3dfc0a37	0.12306636
32	0x3e044703	0.12917714
33	0x3e0983b5	0.13429148
34	0x3e149123	0.1450849
35	0x3d96bd38	0.07360309
36	0x3e4a8cf7	0.19780336
37	0x3e2175b6	0.1576756
38	0x3de419bb	0.1113772
39	0x3dbf205d	0.09332345
40	0x3ad2922f	0.0016065295
41	0x3ddcc96b	0.10780605
42	0xbc6ab0b0	-0.014324352
43	0xbd39be8e	-0.045347743
44	0x3e28b6b0	0.1647594
45	0x3d347b82	0.0440631
46	0xbed5bdcc	-0.41746366
47	0x3e77971d	0.24178739
48	0xbd357702	-0.044302948
49	0x3e1c137a	0.15241805
50	0x3df21c79	0.11821837
51	0x3dc98e35	0.09841577
52	0x3c3993df	0.011326759
53	0xbe9226ac	-0.2854513
54	0x3d9b274e	0.07575856
55	0x3db09c67	0.086235814
56	0x3de8897a	0.113543466
57	0x3dbea9aa	0.093097046
58	0x3dce5a9a	0.100758746
59	0x3db26f32	0.08712615
60	0xbe81289c	-0.25226295
61	0x3de394f0	0.11112392
62	0xbdaced8e	-0.084437475
63	0xbaa0eb58	-0.0012277169
64	0xbd7a6b35	-0.061137397
65	0x3dc7fff8	0.09765619
66	0x3d67e618	0.05661592
67	0xbdd43e05	-0.10363392
68	0xbe0f64bf	-0.14003275
69	0xbe21066c	-0.15725106
70	0xbe162673	-0.14663105
71	0x3dccd44b	0.10001429
72	0x3debb434	0.115089804
73	0x3d54447f	0.051823135
74	0x3df0bd97	0.117549114
75	0xbd5deef2	-0.054182954
76	0x3d5b49a8	0.05353704
77	0x3d3c4e52	0.04597313
78	0xbe6bd9e0	-0.23032331
79	0x3d8104cf	0.06299745
80	0xbcf0e364	-0.029405303
81	0x3c41e8ed	0.011835319
82	0x3e1ff0e7	0.1561924
83	0x3de954cf	0.11393129
84	0x3e09bf4a	0.13451877
85	0x3dc14c88	0.09438425
86	0x3d80d698	0.062909305
87	0x3e0f044c	0.13966483
88	0xbd8b2be1	-0.067954786
89	0x3b506790	0.003180001
90	0xbd05a24b	-0.032625478
91	0x3e29de42	0.16588691
92	0x3dc8557a	0.09781928
93	0x3d6eb6e5	0.05827989
94	0xbe5880f4	-0.21142942
95	0x3e1b1eef	0.15148519
96	0x3e827b87	0.2548487
97	0x3d92677e	0.07148646
98	0x3dc7dddc	0.09759113
99	0x3da61a16	0.08110444
100	0x3e4c102d	0.19928046
101	0x3db509a4	0.088397294
102	0x3e28642c	0.16444463
103	0x3d946436	0.07245676
104	0xb9b60077	-0.0003471409
105	0x3da7ec73	0.08199396
106	0xbca1c3b6	-0.019746643
107	0x3b5de152	0.0033856225
108	0x3e53f950	0.20700574
109	0xbbc43c4c	-0.0059886333
110	0xbc35148d	-0.011052263
111	0x3e37bdfd	0.17943569
112	0x3d195106	0.037430786
113	0x3dd4c1f2	0.10388555
114	0x3e141193	0.14459829
115	0x3e04c4b7	0.12965666
116	0x3d627cbf	0.05529475
117	0xbc78bbd5	-0.015181501
118	0x3d7c5dfe	0.061613075
119	0x3dbfeea8	0.09371692
120	0x3d2f2040	0.042755365
121	0x3dd7863d	0.10523651
122	0x3da6fd8c	0.08153829
123	0x3de47ff3	0.11157217
124	0x3cff6816	0.031177562
125	0x3dd73927	0.10508948
126	0xbcd49fd8	-0.025955126
127	0x3d80c843	0.06288197
128	0xbdc89b63	-0.09795263
129	0x3dded60d	0.10880671
130	0x3dea76c4	0.11448434
131	0x3e651840	0.22372532
132	0xbe0d259f	-0.13783883
133	0x3d5e01f8	0.054201096
134	0xbe1faa6d	-0.15592356
135	0x3d8dfa53	0.06932511
136	0x3dbb5b64	0.09148291
137	0x3ddaeecb	0.106900774
138	0x3e0aee28	0.13567412
139	0x3e8b14bb	0.27164254
140	0x3dc66253	0.096867226
141	0x3e20d6c3	0.15706925
142	0xbe2461b2	-0.16052893
143	0xbe193f75	-0.14965613
144	0xbe1a0249	-0.15039934
145	0x3d06a950	0.032876313
146	0x3d2e82d6	0.042605244
147	0x3dd33a57	0.10313862
148	0x3e1ec3f8	0.15504444
149	0x3dcae72b	0.09907373
150	0x3df02941	0.117266186
151	0x3d928e72	0.071560755
152	0xbe101d1a	-0.14073601
153	0x3ce90830	0.028446287
154	0xbdb19af1	-0.08672131
155	0x3d36febd	0.04467653
156	0xbe51c4cb	-0.20485227
157	0x3ce38ffc	0.027778618
158	0xbe934e61	-0.28770736
159	0x3e241eaf	0.1602733
160	0x3e6df307	0.23237239
161	0x3dcff8bf	0.101548664
162	0x3d62a398	0.055331796
163	0x3e047631	0.12935711
164	0x3e566eb5	0.20940669
165	0xbcb85da5	-0.02250559
166	0x3e3ccd67	0.1843773
167	0xbcbeb151	-0.02327791
168	0xbe5ef828	-0.21774352
169	0x3da016a7	0.078168206
170	0x3d86e55a	0.06586714
171	0x3e2a1210	0.16608453
172	0x3dc7d8c7	0.09758144
173	0x3e0969a2	0.13419202
174	0xbab9c6f1	-0.0014173669
175	0x3e8ab065	0.27087703
176	0x3d4f8e2a	0.050672688
177	0x3db673a9	0.08908779
178	0x3e18e634	0.14931566
179	0xbe58f78c	-0.21188182
180	0x3d4db5c8	0.05022219
181	0xbcbbc111	-0.02291921
182	0xbea39518	-0.31949687
183	0x3dedda2c	0.116138786
184	0x3df3194f	0.118700616
185	0x3e1c1e95	0.15246041
186	0x3dac2f3b	0.08407446
187	0x3e174b54	0.14774829
188	0xbdb51d5a	-0.08843489
189	0x3e037ad1	0.1283982
190	0x3c09dedf	0.008414953
191	0x3e339912	0.1753886
192	0xbacb2575	-0.0015498834
193	0x3e2459da	0.160499
194	0x3df83bf4	0.1212081
195	0x3e1f80cf	0.1557648
196	0xbdf8c10c	-0.12146196
197	0xbdc210a2	-0.09475829
198	0xbe310bf5	-0.17289717
199	0x3dfcaf56	0.1233813
200	0xbe034461	-0.12819053
201	0x3db364fa	0.08759494
202	0x3de4ad49	0.11165864
203	0x3db8966a	0.09013064
204	0x3d887cd2	0.066644326
205	0x3d992bfe	0.07479094
206	0xbe3444e1	-0.176044
207	0xbe318c7c	-0.17338747
208	0xbe44942b	-0.19197147
209	0x3d4ba2de	0.04971587
210	0x3db8b482	0.09018804
211	0x3dd20d93	0.10256495
212	0x3e1faef1	0.15594079
213	0x3db64c57	0.089012794
214	0x3decca13	0.1156198
215	0x3d4a29f2	0.04935641
216	0x3d0d4735	0.034491736
217	0x3dfdae6a	0.123867825
218	0xbd9a3b07	-0.0753079
219	0x3e13b2aa	0.14423624
220	0xbdb63e06	-0.08898549
221	0x3df02927	0.11726599
222	0xbe116d5f	-0.14201878
223	0x3d337569	0.043813143
224	0x3c866a6a	0.016408164
225	0x3e7537cd	0.23947068
226	0x3dd5ae94	0.10433689
227	0x3d90ca20	0.07069802
228	0x3eae65a2	0.34061915
229	0x3d0214c2	0.031758077
230	0x3d5a8ce4	0.05335702
231	0xb90686fb	-0.0001282952
232	0xbe66e254	-0.22547275
233	0x3d8eb2ca	0.06967695
234	0xbdf3a418	-0.11896533
235	0xba8e89e0	-0.001087483
236	0x3dd97065	0.10617141
237	0x3e2db80b	0.16964738
238	0x3ce743c2	0.028230552
239	0x3ee8de26	0.45481986
240	0x3d8674ac	0.06565222
241	0xbcfc3bc3	-0.030790215
242	0x3da5fbaa	0.08104642
243	0x3e209715	0.15682633
244	0xbc994e7f	-0.018714188
245	0xbe701e83	-0.2344914
246	0xbea9900f	-0.3311772
247	0xbc2e34fe	-0.0106327515
248	0x3ddf836c	0.109137386
249	0xbdc36e4e	-0.09542523
250	0x3de37703	0.11106684
251	0x3df5b8d7	0.11998146
252	0x3d3f59a4	0.046716347
253	0x3dd4bd3e	0.103876576
254	0xbe28002c	-0.16406316
255	0x3c8cdbae	0.017194595

output.bias f4 [4]
0	0x3f0a8030	0.5410185
1	0x3efabe29	0.48973206
2	0x3f090a5d	0.5353144
3	0x3f070807	0.52746624
