checkpoint.pth (torch_old, 45539 bytes, 8 tensors)

hidden_layers.0.weight f4 [64, 37]
00000000: 8c61 3ebe 6415 0e3e f8d3 b8bd 6db0 f13c
00000010: cb9f d9bd 08ca b0ba 3edb 7ebd f246 6e3d
00000020: 1e54 a83d 5222 83be 04c5 64be ec03 4ebd
00000030: 478b 16be 6e9e 8b3d 3752 57bd 60b0 99bd
00000040: 72c7 a23d 224a f6bb 6be3 2b3d 3851 8bbe
00000050: 824e 1abe 605b dc3d 69b2 fb3c fdae a93e
00000060: 02d9 083e c023 b6ba de0b d83d 5e5b 39be
00000070: 1826 15be 2c25 babe 8ec0 22be 610f 073e
00000080: e047 ccbd 05d5 fb3d 62e3 ed3c f0ba 973c
00000090: 8cec a2bc 13dd b33d 3eb7 873d 4ba8 1a3c
000000a0: 1f76 f3bc 0952 3fbe 5a83 bfbd c9da 48be
000000b0: 422a cbbc 99f7 e43d b856 2f3f cecd 39bd
000000c0: 2841 c8bc 9e4d 6ebd bbd7 fe3d f62f 8b3e
000000d0: dce6 fb3d 5fbc 093d 536b 44be 9832 06be
000000e0: 6fd7 8bbd 48a3 7abe 2b06 8bbd 8f5f bcbd
000000f0: 9777 723d f93f 673e 7997 72be f97d 38bc
00000100: 5d52 863d 1e21 0bbd 5261 a53d 8b88 29be
00000110: 75ee 273e b890 063e 0e6f 443e 9b1b f13d
00000120: 8da8 df3c 47d3 523b e260 883e 009a 90bd
00000130: 4bce 913d d765 f9bd bdcf 61be 89e7 0cbf
00000140: fbe9 b1bd 94ca 3a3e 75dc 923d 6db8 2cbe
00000150: 51c5 a23d 8ec6 39be 7657 66be 8fb0 a93d
00000160: 92d1 89bd 6bf5 3cbe a78a 1d3d 7acf 0f3d
00000170: 6915 223e 2465 2e3d 0fbf bbbe 3dd1 cc3d
00000180: 926a 683d 7a80 5ebe 9f24 0a3e 5cec 8abe
00000190: 6809 003e 48e8 cc3d 899a 4a3a b7a6 08bd
000001a0: faaa f2bd 1a15 e1bc 96dd 3bbe 36d8 53be
000001b0: 9ee5 f1bc c08e 8bbd 9d95 873c 2230 4cbe
000001c0: 468c f7bd bca3 8e3e bcb5 b7bd 0f7a 50bf
000001d0: 2e22 a23b 5ae4 93bd 30e9 d53d 60cd 453d
000001e0: cea2 81bd 2ff1 973d 3414 f5bd 69ba c5bd
000001f0: 12c6 4fbe c5ca 98be e952 3dbe c777 63be
00000200: 7e46 e13c 6f01 bbbe 6d4c 18bf 2a5c aabc
00000210: ccca fabd 6968 03be ab2d 263e b866 503d
00000220: 302a 88be cf31 76bd 1109 463e e3c0 8f3d
00000230: 7151 cebe e112 9c3c 1788 5b3e 9512 873b
00000240: cef6 9dbe f43b 2ebe d06c 913d 795c 1c3c
00000250: 00e0 5ebe 8c81 06be d37f 28be a9f9 83bd
00000260: 3fe2 99bc 7b2f 163d 751b 84bd b877 fabd
00000270: 6cd3 703e e105 003f b60d bfbd 0c5a d3bd
00000280: ce6d a4bd 50fa 4f3d f0dd b03d 5668 96be
00000290: 77bd 2dbc d948 69bd ab50 483d 1bbc 793e
000002a0: 926e 4ebe 23bc 88bd 11c3 323d e87f 8f3d
000002b0: b271 a83e 261d d2bd cdde 04be 13a0 6d3d
000002c0: da21 833e bbff 993e 0114 f7bd f4ab cbbd
000002d0: fd65 693d efdb a23e a682 233f d7f8 a7bc
000002e0: f1f7 443b c1e0 1f3d afd8 97bc 0692 9ebd
000002f0: 596c ec3c cda6 2d3c 1d94 713e cd80 5c3e
00000300: 8548 e8be d086 2abe 80ed e5bf 39d1 9dbd
00000310: 6f76 33bd ff2b 1bbd d5dd 9cbd 93fc 323d
00000320: 7c2a e33c 41ac 8bbd fb36 77bd d8ab 69bd
00000330: 27c7 d53b ad7e 963d 3427 a93d 11fe e43d
00000340: 2d2e 7f3d 14fe fe3c 3276 3fbb 8a2f a73c
00000350: 0617 9dbb 9d8e acbd 91c9 24be 7116 113e
00000360: 15b6 d4be 1f50 30bd 7f2f b5bd eeeb 66bf
00000370: 2909 e7bc e11f 033c 100e 6fbc 954a 5f3d
00000380: d4e8 823b 83d3 863d 8bc3 fabb 7347 aabd
00000390: 5156 8dbd afee 9fbd ebfc a63d 3500 2c3e
000003a0: 59be a3bb 3fbf d43d dc28 0a3e 2a6d 0e3e
000003b0: cf4e 963d d09e 8fbd 5914 71bd 184b 5dbd
000003c0: 8643 363e a8cd a33e 7d21 a1bd e004 93ba
000003d0: f25e ad3d 994c e33d 7b67 ab3e bf9e f3bd
000003e0: 6eeb d1bd 38c1 5fbc 1eea 2b3d 9aaf 113e
000003f0: b0c3 10be ad74 473d 412c b33d 8fd0 e53d
-0.18591899 0.13875347 -0.09024805 0.029503072 -0.10626181 -0.0013487944 -0.062220804 0.058173127
0.08219169 -0.25612122 -0.2234078 -0.05029671 -0.14701568 0.068173274 -0.05256864 -0.07504344
0.079481974 -0.0075161615 0.04196493 -0.27210402 -0.15069011 0.10759616 0.030724721 0.33141318
0.13364032 -0.0013896152 0.105491385 -0.1810126 -0.14565313 -0.36356485 -0.15893766 0.1318946
-0.099746466 0.122964896 0.029039089 0.018521756 -0.019888185 0.08782401 0.066267475 0.009439538
-0.02971941 -0.18683638 -0.09351225 -0.1961471 -0.024800424 0.11180038 0.684917 -0.045362286
-0.024445131 -0.05817949 0.12443491 0.2718503 0.12299892 0.03362691 -0.19181566 -0.13105237
-0.068282 -0.2447635 -0.06788286 -0.09197914 0.05919608 0.22582997 -0.23690595 -0.011260503
0.06558678 -0.03396713 0.08075203 -0.16555993 0.16399558 0.13141143 0.19182989 0.117728435
0.027302051 0.0032169388 0.26636416 -0.07060623 0.071194254 -0.121776275 -0.22051902 -0.55040795
-0.08687206 0.1824134 0.07170955 -0.16867228 0.07947791 -0.18142149 -0.22494301 0.08285629
-0.067294255 -0.18452995 0.038462307 0.035109974 0.1582848 0.042576924 -0.36669204 0.100008465
0.05674226 -0.21728697 0.13490532 -0.27133453 0.12503588 0.10005242 0.0007728716 -0.033362117
-0.118490174 -0.027475882 -0.18346247 -0.20687947 -0.029528435 -0.06814337 0.016550833 -0.19940236
-0.12087302 0.27859294 -0.0897021 -0.81436247 0.004947922 -0.07221289 0.104448676 0.048291564
-0.06329881 0.07419049 -0.11966744 -0.096546955 -0.20290402 -0.298422 -0.18488659 -0.2221366
0.027499434 -0.3652453 -0.59491616 -0.0207959 -0.12245712 -0.12832798 0.16228358 0.05087921
-0.26594687 -0.060106095 0.19339396 0.07019212 -0.4029651 0.01905197 0.21438633 0.004122088
-0.3085236 -0.17015058 0.071008325 0.009543532 -0.21765137 -0.13135356 -0.16455011 -0.06444103
-0.01878464 0.036666375 -0.064505495 -0.12229866 0.23518151 0.5000897 -0.09328787 -0.103199095
-0.08028756 0.050775826 0.08636081 -0.29376477 -0.010604254 -0.05695424 0.048905056 0.24388163
-0.20159367 -0.06676509 0.04364306 0.07006818 0.32899243 -0.10259466 -0.12975617 0.058013987
0.25611764 0.3007792 -0.12064362 -0.09944907 0.05698203 0.3180842 0.6387123 -0.020504398
0.003005501 0.0390327 -0.01853594 -0.077426955 0.028860258 0.01059885 0.23591657 0.21533509
-0.45367828 -0.1665299 -1.7963104 -0.07705922 -0.04381412 -0.037883755 -0.076594986 0.043697905
0.027730219 -0.06819964 -0.060355168 -0.05704865 0.006523985 0.0734838 0.082594305 0.11181272
0.062299896 0.031127013 -0.0029214737 0.02040841 -0.0047940044 -0.08425639 -0.16092516 0.14168717
-0.41545168 -0.04304516 -0.0884695 -0.9020375 -0.02820261 0.008003206 -0.014590755 0.054514486
0.0039950404 0.065833114 -0.007652705 -0.08314409 -0.06901229 -0.07809197 0.08153709 0.16796954
-0.0049970564 0.1038804 0.13492149 0.1390883 0.0733925 -0.07012713 -0.058857296 -0.054026693
0.17799196 0.3199284 -0.078677155 -0.0011216663 0.08465375 0.11098594 0.33477387 -0.11895513
-0.10249983 -0.013656907 0.04197132 0.14227143 -0.14137149 0.048695255 0.08748675 0.1122142

hidden_layers.0.bias f4 [64]
00000000: 22c6 913d 8ca8 0fbe 9ea5 2ebe 4431 92bd
00000010: f270 fe3c ddca 9b3b ccfc b2bd c4a9 7b3d
00000020: 12b2 17bd 827d 99be f6b6 f03d ca12 3a3e
00000030: 87be a33c 0ff2 2f3d aeb5 0bbe e876 bdbd
00000040: 6d52 aabc 17aa 20be 832a 4dbd dde0 8bbe
00000050: 7865 4dbe 562e f03d 7620 06bd ea29 4fbd
00000060: c30a 8dbd 292b c93b c0a8 1bbe c79f f6bd
00000070: a62d 283e a8a1 0b3e a427 b8bc 4288 3abe
00000080: 22d4 e53d 11ad b5bd 69fc e6bd 8114 0c3d
00000090: 1ed2 16be 04dd 5a3c 3b4f 95bd fa98 f0bd
000000a0: af80 40be 65bc 663c acfd 51be 651f d93d
000000b0: 2588 2cbe 8080 2abe a3af 5ebd 4869 f7bd
000000c0: 39ae 41be 9922 303d 3ede 88be 03fd 773b
000000d0: 47a3 61bd 4eae 653d dc4a 9cbe 6b05 06bd
000000e0: 5c13 c43d 2b69 febd dfb0 68be 4bcb 4fbe
000000f0: 54da a4bd a00d 673d e515 11bc 5770 033d
0.07117869 -0.1402914 -0.17055365 -0.07138303 0.031059716 0.004754408 -0.087396234 0.061441198
-0.037035055 -0.29978567 0.11753647 0.1817123 0.019988311 0.042955454 -0.13643524 -0.09251195
-0.020791257 -0.15689884 -0.05008937 -0.27319995 -0.20058239 0.11727588 -0.0327458 -0.05057708
-0.06886818 0.0061391783 -0.15201092 -0.12042194 0.16423663 0.13635886 -0.02247984 -0.1821604
0.11222102 -0.088709004 -0.11278612 0.03419924 -0.14728591 0.013358358 -0.07290503 -0.11747928
-0.18799089 0.014083003 -0.20506924 0.10601691 -0.1684881 -0.16650581 -0.05436672 -0.12080628
-0.18914117 0.043001745 -0.26732057 0.0037840016 -0.055087354 0.056074433 -0.30525863 -0.03272001
0.09574005 -0.12422403 -0.22723721 -0.20292394 -0.08049455 0.05640948 -0.008855318 0.032089557

hidden_layers.1.weight f4 [64, 64]
00000000: 589d 1a3c 011b 193d 84da 163d 4e4c 7f39
00000010: 4050 32bc 669b 343c f9e6 ebbd 1a11 e8bd
00000020: 19a6 c0bb 3df8 02bc 5a8b dabd 15b9 03be
00000030: ad01 46be 5fe5 df3d d886 493c 1bdf bdbb
00000040: 5903 ddbd 0dc8 04be 534c 21be ffce d93d
00000050: 263e e2bd 3d1c ef3d 25ce ca3d 67ab 8ebe
00000060: 4888 83bd 62fd e7bc 9b4e bb3c 8a20 5c3e
00000070: cfef b03d 667d 9e3d dee9 c93d b1d7 d1bd
00000080: 6c84 8cbc bda7 a3bd 6bd0 08bd 1a48 8ebc
00000090: ac81 89be 991e ce3d 029e 873c 81a9 3bbd
000000a0: dd8e 1dbe 1981 693d 40b9 6b3d 9f1b 5fbc
000000b0: ffb4 243d 3cb8 0f3d fc2f 1cbe c787 273e
000000c0: 3b0c cdbd dc74 ed3c a914 27bb afed a9bc
000000d0: e76d da3c 5ba3 b1be b3c0 dc3c c27f 1b3d
000000e0: 762d 51bd b52b 033d 189f f3bd c10b eebd
000000f0: 334a 683d 8746 7d3d 9b4a abbd 7ca3 9cbd
00000100: e9f7 393d 0794 c53d 1244 15be 585d c4bd
00000110: b954 fdbd e447 903d a7bc 06be e558 b53d
00000120: 4fc4 55bd 5a5b 9dbd 215a e4bc faf7 383d
00000130: fa6c e6bd 2fb5 823d 1f87 e0bc 6052 0c3d
00000140: 5a48 853d 2ddb 453c 5e5c 57be e997 05be
00000150: 215c cabd e06c 5ebe 0f9b 453c de9e 8ebd
00000160: d74e 43bd 7eb1 c8bd 8f00 5ebd 498c 32be
00000170: 8f95 8dbc c2ba 7fbe 03a4 4f3d fd21 f8bd
00000180: 6ed7 3fbd f7ea 4d3d bfd7 653d 7d10 54bd
00000190: 6fe1 013d d473 f23c f015 803d 5e80 2bbe
000001a0: 9c89 8bbd 8049 333d e136 f9bd 1c30 f4bd
000001b0: 976e 6ebe a45c e1bd e0aa 7abe f757 d8bd
000001c0: 8ab9 90be 122e 89be 31f4 3abd 2ad1 ff3c
000001d0: 4d0d a5bd 0c7b a5bc 22e0 4cbc 2051 dbbd
000001e0: 684d f6bd c095 793c e5c0 fd3d 5b75 a93d
000001f0: f3c1 7ebe 5c94 91bd a66e a9bb dbaa febc
00000200: 5d94 4fbe 1b81 f3bd c318 d73d c21e 71be
00000210: 933c 9cbc 355e 8f3b 1242 f9bd c1b4 643b
00000220: 7d7f d93d cc8b 20be 0566 2bbd b32a a4bd
00000230: 6d72 62bd 64f3 3dbe a3cc 1cbe f8f3 98bd
00000240: dccb 83be 58d7 5f3d 1567 343d 14f2 d0bc
00000250: 7bf2 a8bd 3882 fd3d 9d93 533d 14c2 c6bd
00000260: 8032 8abd 21d2 93bd 999c a33c f5d0 e23c
00000270: 712a f7bd feba aa3c 0780 63bc 5e6e 9cbd
00000280: d8f0 c1bd ad92 73be a039 45be e3da 29bd
00000290: 09da 9a3d 4ac4 4bbd 9df2 95bd cab2 c8bd
000002a0: 3c28 683c 79cb ffbd b671 f7bd 08b4 a8bd
000002b0: b1de b1bd 41dd 89bd ac53 6c3d 0005 adbd
000002c0: 43e8 30be 1120 63be 772a efbd f9b7 363d
000002d0: 2c75 47be 9391 ed3d f9a7 66be e6d4 58be
000002e0: 1f29 ccbd b79b ffbd f58a 623d 33ac 53bb
000002f0: b3e0 25be 9c9b 55bd 9064 203e 5652 a8bd
00000300: e960 c2bc bb92 643c 2a4b d63d 3abf 2abe
00000310: 5643 38bd a3e0 c23d 77f2 98bb 4c93 ef3c
00000320: 6676 bd3c 6064 6cbd 35e7 863e 4a77 823e
00000330: b641 ecbd d0fd 183e 4fbe 94bb b4fe a23b
00000340: 8c3e b1bc 44be 4a3b 8fbe a73c 3fa7 843c
00000350: 917c ccbc a4ba 083e 1805 d03d 1d79 213e
00000360: f902 413e ff05 1bbc c71e 913d 811d 803e
00000370: 2003 4f3e 1742 a1bd d96c 373d 979f 2bbd
00000380: 8fdb 00bd d8cd 08bd 63af 8b3e ef9a 813d
00000390: 5409 8f39 50a2 443e 2992 7e3d 0798 a43e
000003a0: 91ce b73d 17d4 503e 3d46 11bd 5487 b7bd
000003b0: ca4f adbd 7c52 70bd c90b 773d bc1f 273d
000003c0: fb77 7f3c a496 9cbc 003e 54bd 94d2 2ebc
000003d0: 73cd 613c 52ed f43d 1442 31be e463 c23c
000003e0: 8baf ffbb 7e6f 22be 82d4 afbc 3b45 6ebc
000003f0: 7f36 20be f8b4 7338 94ba 07be ebab 4d3e
0.009436928 0.03737927 0.036829486 0.00024347121 -0.010883391 0.011023378 -0.11518664 -0.11331387
-0.0058791754 -0.007993755 -0.106711105 -0.12863572 -0.19336577 0.10932421 0.012300216 -0.0057944185
-0.10791654 -0.12966938 -0.15751772 0.106351845 -0.1104701 0.11675308 0.099026 -0.27865145
-0.06422478 -0.028319065 0.02286463 0.21496788 0.0863949 0.077387616 0.0985906 -0.10246218
-0.017152987 -0.07990978 -0.033401888 -0.017368365 -0.26856744 0.1006443 0.016554836 -0.04581595
-0.1538653 0.057007883 0.057549715 -0.013617425 0.040211674 0.03508781 -0.1525268 0.16360389
-0.100120984 0.028986387 -0.0025494492 -0.02074322 0.026663734 -0.34694943 0.026947355 0.037963636
-0.051068746 0.032024104 -0.11895579 -0.11623336 0.056711387 0.06183484 -0.08363839 -0.0764837
0.04540244 0.096473746 -0.14576748 -0.095881164 -0.12369675 0.07044962 -0.13157903 0.08854846
-0.052189168 -0.076834396 -0.027875008 0.045158364 -0.112512544 0.06382214 -0.02740818 0.034258246
0.065079406 0.012076181 -0.21031329 -0.1304623 -0.098808534 -0.2172122 0.012060895 -0.06963895
-0.04768261 -0.09799479 -0.05419975 -0.17436327 -0.01728323 -0.24973586 0.050693523 -0.12115858
-0.04683631 0.050272908 0.056113955 -0.051773537 0.03170913 0.029596247 0.06254184 -0.16748187
-0.06813356 0.043771267 -0.121686704 -0.11923239 -0.23284374 -0.11003998 -0.24479246 -0.10563653
-0.28266555 -0.2679296 -0.045643035 0.031227667 -0.080591775 -0.020200275 -0.012504609 -0.10708833
-0.12026483 0.015233457 0.12390307 0.08274337 -0.24878673 -0.071083754 -0.005170661 -0.03108733
-0.2027144 -0.11889859 0.1050277 -0.2354689 -0.019071853 0.004375244 -0.12170805 0.0034897777
0.106200196 -0.15678328 -0.04184534 -0.08015957 -0.055284906 -0.18549877 -0.15312438 -0.07468408
-0.2574147 0.054648727 0.04404362 -0.025506057 -0.082493745 0.12378353 0.051654447 -0.09704986
-0.06747913 -0.07217813 0.019972133 0.02768753 -0.12068642 0.020841118 -0.013885505 -0.07638238
-0.094697654 -0.23786421 -0.19260263 -0.041468512 0.07561118 -0.049747743 -0.073216654 -0.09799726
0.014169749 -0.12489981 -0.120822355 -0.08237463 -0.08685053 -0.06731654 0.057696983 -0.08448219
-0.17276101 -0.22180201 -0.116780214 0.044609044 -0.19478291 0.11600032 -0.22525014 -0.21174964
-0.09968781 -0.12480872 0.0553083 -0.0032298684 -0.16198997 -0.052150354 0.15663362 -0.08218829
-0.023727851 0.013950999 0.10463555 -0.1667451 -0.04498609 0.09515502 -0.004667576 0.029245041
0.023127746 -0.057712913 0.26348272 0.25481635 -0.11535971 0.14940572 -0.004539288 0.0049742106
-0.02163627 0.003093616 0.020476608 0.01619303 -0.024961742 0.13352448 0.101572216 0.15768857
0.1884879 -0.009461879 0.070859484 0.2502251 0.20216036 -0.07873934 0.04478154 -0.041900244
-0.031459387 -0.033399433 0.27282247 0.06328379 0.00027282035 0.19202542 0.062151108 0.32147238
0.08974946 0.20393406 -0.035467375 -0.08961359 -0.08462484 -0.058672413 0.060313974 0.04080175
0.01559257 -0.0191148 -0.05181694 -0.010670323 0.013781893 0.11959328 -0.17310363 0.023729272
-0.007802909 -0.15862843 -0.021463636 -0.014542873 -0.15645789 5.8104255e-05 -0.13254768 0.20085113

hidden_layers.1.bias f4 [64]
00000000: abc5 87ba 7635 1dbe 9f8e 80bd bbf0 0d3d
00000010: 2a53 983d 8693 3abe 60d2 babd eec2 d43d
00000020: 8e50 f43d 920c e83c 654f 513d 6c74 9d3d
00000030: 12c6 be3d 83e2 623c c510 00be 4160 983d
00000040: f8da 023d b57e 49bd 1c1b 143d e087 413d
00000050: 8283 7d3d 6873 e93d 25c7 0a3c c223 a7bd
00000060: d412 34bd 92b4 27be 009f 563e ee32 4cbd
00000070: 8d32 123d ca8c a7bc 490c 183e e88b a8be
00000080: 33bf bd3a 27da 703c c229 43bc 8ef5 1f3d
00000090: 3866 0abd 62c1 833c 6ede 093e 4f13 79bd
000000a0: 7d89 fabd 97e5 c73d abeb 6a3d b9c8 89bd
000000b0: dab0 ccbd 4a8d a6bc 7882 47bd 2e03 3bbe
000000c0: 5dd8 053e f1a2 56be 9686 17bb 52b6 c23d
000000d0: 2964 943d 7b94 64bd d0b8 cdbc ac3b 90bd
000000e0: 3cbf 03be b5af 27bd cfdf 8f3d ef64 af3d
000000f0: 78ca fc3c 4c59 013e b256 013e 7add 41be
-0.0010358592 -0.15352425 -0.06277203 0.034653407 0.07437737 -0.18220338 -0.09122157 0.103887424
0.11929427 0.028326306 0.051101107 0.07688221 0.09315123 0.01384795 -0.12506397 0.07440234
0.031947106 -0.049193103 0.036158666 0.04724872 0.061892994 0.11398965 0.008470331 -0.08161117
-0.04396327 -0.16377476 0.20959091 -0.049853258 0.03569274 -0.020452876 0.14848436 -0.3291924
0.0014476537 0.014700449 -0.011911811 0.03905254 -0.03378889 0.016083423 0.13463756 -0.06080943
-0.12233255 0.09760588 0.057353657 -0.06727738 -0.09994669 -0.020331044 -0.04870841 -0.18262932
0.13070817 -0.20960595 -0.002312099 0.09507431 0.072456665 -0.055805665 -0.02511254 -0.070426315
-0.12865919 -0.04093905 0.0702511 0.085641734 0.030858263 0.1263172 0.12630728 -0.18932143

hidden_layers.2.weight f4 [64, 64]
00000000: 7879 4a3e ef5d 4a3d a5f0 ef3d ccf4 5eba
00000010: b632 043e 757d 57bd af1f 383e 7a30 95bc
00000020: a953 523d f800 35be 0624 84bd 0397 123e
00000030: 4c5e 1c3d 261b c73d 99b0 87bd 1772 353d
00000040: cd0c cd3d 67a5 58bd 508e 643d 0b7d 4a3e
00000050: c179 54bd e7f3 c83d 1bb1 af3d d0b4 3ebd
00000060: ab1a 963c 0906 f8bd 054e 20be 66e1 e2bd
00000070: 6457 9b3c 8e1b e0bd aa3e 5fbd aa35 f73d
00000080: 680d 443e 7400 f93d 9110 053e a03e 84be
00000090: edfc 033e 2036 4ebd e63c 8bbd 9404 383e
000000a0: 838b 8c3d 3438 b73d 81f1 343d f6b1 fa3c
000000b0: fab8 fd3d 005f dc3d 3ad2 1e3e dad9 d43d
000000c0: dc9f dcba 596d b33d 692c d33c 8f02 ff3d
000000d0: 2bd4 0fbc 804c 07bd 6929 74bc b96c 02bd
000000e0: ac46 cabc 8cb5 35bd 9872 473d f974 203c
000000f0: ab9f b8bd e3fa 383e 6e12 f83b 2686 313e
00000100: 7508 f93d 3f9c 79bd df9f 383e 3af3 10be
00000110: 4210 d23d f73f e03c 1ef4 913d 804f 82bd
00000120: 3792 6abe 5514 dabd 6fb1 cb3b 985b 9a3d
00000130: 0903 9d3c aa22 713d e32c 1abd 4fe4 8f3d
00000140: a729 c5bd 9bea 13bd 57ce 8dbd 99a7 243c
00000150: 8221 4c3d 3f4f 9b3d f1f4 09bd eb1b a93c
00000160: c9e6 e0bd fd32 0fbe b756 31bc fe9f 5d3c
00000170: eb16 1cbe acf9 493d eb89 9a3c 3233 043d
00000180: 104f 2cbd c742 38be a570 e13d 02eb 05be
00000190: 9f2a 8a3d 7e4f 53be 8b13 e13d a9ff 30be
000001a0: 49ea c63c fb07 bd3b eff6 f8bd f3c7 123e
000001b0: ddf5 37be 0390 19be f6ec 6cbb ba32 c8bd
000001c0: 8109 4c3d ae7a a1bc 6a23 44bd ea15 42bd
000001d0: 1a36 023d 035e 353c e448 7abd 675c 80bd
000001e0: 9ad2 35be dcf1 4abd 585f 64bd 1b90 41be
000001f0: 1eba 77bd a8e4 08be 6aea 76bd 1533 d3bc
00000200: 2e3d e43d 412d 2bbc 368c 2a3d 25a3 243e
00000210: 6464 833d cd1f ba3d c3e8 5f3d bbec 1c3b
00000220: 7cd9 f0bd 60b5 90be 5611 79be c611 283e
00000230: 8b4b da3d f955 f63d a959 f6bd 1a71 af3d
00000240: cf7b 503e d104 52be 1587 8abd 52e2 4cbd
00000250: ca6c 563c 7e2c 623e c35b 8ebd f34a e8bd
00000260: b1ff 8d3d cc42 31be 5a5a c0bd 0e35 b0bd
00000270: 9a2e 663e 1420 1b3e 1924 9ebe a3f5 88bd
00000280: a347 4a3d 826b f63b 4458 f13d 8899 b2be
00000290: da91 913b 4330 4abe fbd5 08be bc01 963d
000002a0: e42e c63d 34e5 bd3d 7a91 d93d fe42 003c
000002b0: 8b02 063d fc55 4f3e e4e7 093e b54d 143e
000002c0: 90a6 9dbb 92d0 09be c84a dbbb 1976 5b3e
000002d0: d2b7 093c 7208 763d 9fb4 e4bb 5f44 85be
000002e0: 5483 c7bd 15ce 033e 4b2c 1f3e 02ee 41bd
000002f0: 3806 b1bc f9ca 0e3d 89fa 54be 41be b1bd
00000300: 9831 373d f96d b93d 91ed e9bc 1c0b 05be
00000310: a7f4 7ebd d9b4 f23b b707 9ebd c9c6 a63c
00000320: 2717 b9ba 32f1 d63d f8a0 d83b 41d1 05bd
00000330: 05d4 053d 78cf b4bc 00be 723d 2658 a3bd
00000340: b68c b43d 60ec 843b bb3b 63bd 6d60 ce3d
00000350: 7445 7ebd 7b86 af3d 0d97 a0bd aea0 a63c
00000360: 96f1 82bd 6abc c8bd 4346 20bd 8ded 4f3d
00000370: d074 523d 5615 9ebd 4634 a3bd a966 943d
00000380: d52a 5fbd 4ead 69bd 5e31 d9bd 5c27 313c
00000390: be6b 95bd f330 bfbc 827c 7b3c 4f36 a6bc
000003a0: 2367 f2bd dc3e e33c c364 933d 6a91 eabd
000003b0: 2b89 943d 3f9c f5bd 0bad 473c a748 15bd
000003c0: fb52 bebc b32c 75bd f8f8 e73d a2dd ad3c
000003d0: d067 0ebc bd42 c0bc d8ae 483d 6cb0 4a3d
000003e0: 8527 ffbd 5469 03be 3df5 b1bd 83b8 aebd
000003f0: 0570 c1bd 7884 0bbd 2e38 74bd 0fd0 75bb
0.19772899 0.04940599 0.11715821 -0.00085051055 0.1290997 -0.05260988 0.17980836 -0.018211592
0.051349316 -0.17676151 -0.064521834 0.14315419 0.038175866 0.09721975 -0.0662548 0.044298258
0.10012207 -0.052892115 0.055799782 0.19774263 -0.051873926 0.09812146 0.08578702 -0.046559155
0.018323263 -0.12110526 -0.15654762 -0.110781476 0.01896257 -0.10942756 -0.05450312 0.120707825
0.19145739 0.121582896 0.12994601 -0.2582903 0.12889452 -0.050344586 -0.06798725 0.17970496
0.06862547 0.08946267 0.04417563 0.030602437 0.12388797 0.10760307 0.15509883 0.103931144
-0.001683231 0.08761091 0.025778012 0.1245166 -0.008778612 -0.03303194 -0.014902451 -0.031841967
-0.024691902 -0.04436259 0.04869327 0.009793513 -0.09014829 0.18064456 0.0075705564 0.1733633
0.12159816 -0.060940024 0.18029736 -0.14155284 0.10257007 0.02737425 0.0712664 -0.0636282
-0.22907339 -0.10648409 0.00621622 0.07537001 0.019166486 0.05887095 -0.037640464 0.07025968
-0.09627085 -0.03611241 -0.06924122 0.010049724 0.049836643 0.07583474 -0.03368086 0.020643195
-0.10981519 -0.13984294 -0.010823897 0.013526915 -0.15243118 0.04931037 0.018864593 0.032275386
-0.042067587 -0.17994224 0.11007813 -0.1307793 0.067464106 -0.20635793 0.10990056 -0.17285027
0.024281638 0.0057687736 -0.12156474 0.14334087 -0.17964883 -0.14996342 -0.0036151982 -0.097753
0.04981375 -0.019711819 -0.047885336 -0.04738418 0.031789877 0.011069777 -0.06110467 -0.06267624
-0.1775612 -0.04954706 -0.05575499 -0.18902628 -0.06048023 -0.13368475 -0.06028215 -0.025781194
0.111444816 -0.010447801 0.04163762 0.1607786 0.06415632 0.09088097 0.05466534 0.0023944813
-0.11760232 -0.28263378 -0.2432302 0.1641303 0.1065894 0.12028117 -0.1202882 0.08566494
0.20359729 -0.2050965 -0.06764046 -0.050020523 0.013087461 0.22087285 -0.06951096 -0.113424204
0.06933535 -0.17310637 -0.09392233 -0.086038694 0.22478715 0.15148956 -0.30886915 -0.066874765
0.049384724 0.00752014 0.117844135 -0.3488276 0.0044424357 -0.19744973 -0.13362877 0.073245496
0.096769124 0.09272233 0.106234506 0.007828472 0.03271727 0.20247644 0.13467366 0.14482768
-0.0048111156 -0.1345847 -0.006692264 0.2143177 0.008405643 0.060066648 -0.0069795395 -0.26028726
-0.09741846 0.12871583 0.1554424 -0.047346123 -0.02160941 0.03486154 -0.20798697 -0.08678866
0.04472503 0.09054179 -0.028555663 -0.12992519 -0.062245037 0.0074068126 -0.07716315 0.02035846
-0.001412128 0.10495223 0.006610986 -0.032670263 0.0326729 -0.022071585 0.05926323 -0.07975797
0.08815901 0.0040564984 -0.055476885 0.100769855 -0.062077954 0.08570572 -0.07841311 0.02034029
-0.06393735 -0.09801562 -0.039129507 0.050763655 0.051380932 -0.07718913 -0.07968955 0.07246143
-0.054484207 -0.05705004 -0.10605119 0.010812607 -0.07295941 -0.02333877 0.015349509 -0.020289568
-0.11836078 0.027739935 0.07196953 -0.11453517 0.07252725 -0.11992692 0.012187253 -0.03644624
-0.023232928 -0.05985708 0.11326784 0.021223847 -0.008691743 -0.023469323 0.04899487 0.049484655
-0.124587096 -0.12833148 -0.086893536 -0.085312866 -0.09445194 -0.03406188 -0.05962389 -0.0037508046

hidden_layers.2.bias f4 [64]
00000000: 3daa 263e 8c1f 0ebd 0a44 c43d 877b 25be
00000010: d6eb 1ebe 1858 533e 146c 3b3e 96c2 963d
00000020: 9d71 17be 2846 6d3e 2f6f a33d 4808 eb3d
00000030: 428a 1f3e 7d96 ec3d f6fd 093e 4e45 443d
00000040: 10a5 f2bd 5c7b 393e d599 563e 7986 223e
00000050: b074 2d3e 24df 563e 2650 db3d a7fd 403d
00000060: 0f2c 20be 793c acbd 1fd8 febd 312b 1fbe
00000070: 18f6 1f3e 8c9a 2b3e 3264 2f3c 9771 b4bd
00000080: 800c 033e b60c 943d 76e9 843d a0f3 31be
00000090: 7258 2abe 632f 333e 1267 153e b5e2 10be
000000a0: 09b0 6cbe fb89 443e 0371 113e f5ec ca3d
000000b0: 88a1 1bbe 2314 663e 0ea0 f9bd c437 ae3d
000000c0: bff3 403d 466b 503e c7ab a1bd 6115 5d3d
000000d0: 6512 5c3e f676 6fbd ac9a 4e3e d17a c53c
000000e0: f0ec 94bd b7ae 6dbc 0acd 633e 3045 43bd
000000f0: ce94 f1bd a0bc 583e a9c4 2d3e c55a a6bd
0.16275878 -0.034698054 0.0958329 -0.16160403 -0.15519652 0.20639074 0.18302947 0.07361333
-0.14789434 0.23171294 0.07980191 0.11476189 0.15580085 0.11552141 0.13475785 0.047917657
-0.118478894 0.18113464 0.2095712 0.1587161 0.16939044 0.20983559 0.107086465 0.0471169
-0.15641807 -0.08409972 -0.124435656 -0.1554382 0.15621221 0.16758174 0.010705041 -0.08810728
0.12797737 0.07228987 0.06489842 -0.17378092 -0.16635302 0.17498545 0.145901 -0.14148982
-0.23114027 0.1919326 0.14203267 0.09908477 -0.15198338 0.22468619 -0.12188731 0.0850673
0.047107454 0.20353422 -0.07894092 0.053975467 0.21491392 -0.05846306 0.2017619 0.024106415
-0.07271755 -0.014506987 0.22246185 -0.047673404 -0.1179596 0.21165705 0.16969551 -0.08122782

output.weight f4 [4, 64]
00000000: 4e89 b13d 7056 93bd 7787 063e fb0c 923d
00000010: 44c8 da3d c2db 1d3e 5b32 af3d 90f8 cebc
00000020: db28 6ebd 4962 1d3e a0c2 863e 4692 cd3d
00000030: 61e2 0c3e f93c 373e 21f3 183e b2e4 923d
00000040: 8c09 983d 1888 0f3e 566b 223e afcd 893d
00000050: c46a d83d 5d4e 863d 2fc4 c4bd c633 55bb
00000060: 7bb5 dfbd 25b6 d7bc e136 1cbd 7952 103c
00000070: 7d15 e43d 5a18 ca3d fa3e 7c3d 2184 7ebe
00000080: d274 a43d 23ba 59be 30c4 ffbd 33bc d43d
00000090: e31d 57bc 75c1 063e 2ece a53d 452c a53d
000000a0: a003 81bd a4d2 f73d 9950 35be 0f41 0dbd
000000b0: d251 9d3d 33ab c03d ed5d b8bd d9ba d23e
000000c0: 843a 863d 7325 ff3d 7839 9ebd 1511 5abe
000000d0: c5cc a53d 2af7 99be d95e 113e fafc 7abe
000000e0: c564 cc3c bfd2 51be c66e a23d daa0 27bd
000000f0: 8910 0abe f6c0 ba3d 875c a13d 2d46 d2bd
00000100: 5580 df3d 9727 e23d 483b 023e 7ef1 343c
00000110: f4fc 8f3d 9fd8 073e 4fc4 903d a365 f63d
00000120: b499 c5bd 04bc 033e acd9 703e c0ad 763d
00000130: bff9 a43d c752 453e df2d 0c3e 1f61 1f3e
00000140: 967c a4bd c158 c13d 3607 f73d 3c34 a73d
00000150: e3aa a83d fc5d 853d fcc3 e3bd 3df1 aabd
00000160: a7d2 33bc fb0d 28be a881 d4bd c406 373d
00000170: 1280 df3d 1fdd 823d dc76 483d 4699 a3bd
00000180: 3872 cb3d 5d21 00ba 3bcd fe3d b7d9 0fbd
00000190: 0e5a 73bd ef10 ea3d ca39 d73d 5462 47bd
000001a0: bee6 13be a909 243e 0d27 83be 5358 e8bc
000001b0: bb33 4fbc 3235 da3d 6c5e 8f3b 9f37 833e
000001c0: 18eb 573d d92c e53d 103f 9dbd 04c8 cdbd
000001d0: 30cb 663d 4e21 733d cd45 603e 199b bdbd
000001e0: dedc 553e ca8c 98bc c1e0 c13d 2d08 ee3d
000001f0: 4660 e6bc c89b ce3d fb15 c73d 12f1 713b
00000200: 6924 eb3d 3d1d a4bd 7948 973d 8ad3 ba3b
00000210: a9c0 e3bd 7c64 313e 8733 013e edee 46bc
00000220: ded9 bebd 1819 fc3d 4f62 603e ecf8 e93d
00000230: f998 183e c347 343d 901a 9dbe 38e1 4d3e
00000240: 7b70 2ebe 05f4 a33d ef7a 003e 6d8e b13d
00000250: 04a1 693d 32c1 d93d 1651 55be 3867 7ebe
00000260: 9746 aebd 7fb6 1d3c 4ed5 0dbe 0afe 99bd
00000270: eb89 183e a3ec b93d 9757 13be c476 a1bd
00000280: 44cb e83d b2b5 f1b9 32af 673d 76a0 083d
00000290: a93e 2a3d 90ba a13d f162 c83d 46e9 d9bc
000002a0: 2734 963d 39b4 a33d 6c5a 39be 9a92 683e
000002b0: 89f5 01bd a3b1 e23d e7f2 52bb 9fba 403e
000002c0: 5319 f23d 2901 a83d 4d36 b0bd 09dd 64be
000002d0: 9ed7 083e 16e0 a13d cd12 55bd 7873 b8bd
000002e0: a4a7 c9bb 0b1b b6bd ef4e b53d 2050 9b3d
000002f0: 0f77 6ebe acf2 f03d 8eb1 b53d 5148 413d
00000300: 56f2 c33d df35 86bc 8208 233e 6ab9 983d
00000310: dbe3 33be 1c72 113e db2a ba3d 2e2a 0d3e
00000320: f112 3cbe db46 703d d869 873e 49d0 033e
00000330: 702c 23be fe9f 963d 7eb5 d93d a03a adbd
00000340: 624a e5bc f5b0 0b3e 6716 823d 200d af3d
00000350: 0266 f63d fc71 ad3d c41f c9bc 372f edbd
00000360: c1ec 6e3c 7ef9 c53c 39cc 68be 2e23 693c
00000370: 0d3f 5a3d e106 b73d 2583 123e 4aee 09be
00000380: 92a6 be3d de9d 25bb 40e4 633d 06b1 23bd
00000390: 4b9a 30bd 2232 853d c011 d83d 34d8 cf3b
000003a0: 9149 723d f10c 103d 9b46 94be e6aa 03be
000003b0: 7145 52bb 250c 043e 25b6 0b3d b94f 6b3e
000003c0: c5dc ef3d a387 c03d 09b6 24bd f03b 89bd
000003d0: 64dd b43d 7de9 eabd 1b5e 87bd 96c9 01bd
000003e0: 3ba2 9ebd 88f7 cabd 2c54 bd3d 51e9 9abb
000003f0: 0799 4abd c7c5 033e 173b f63d 866c f6bb
0.08668767 -0.07194221 0.13137613 0.07131382 0.10682729 0.15415862 0.085545264 -0.025265008
-0.05814443 0.15369524 0.26320362 0.10037665 0.13758232 0.17894353 0.14936496 0.071725264
0.07423696 0.1401676 0.15861258 0.06728684 0.10567239 0.06557915 -0.096077316 -0.003253208
-0.109232865 -0.02633197 -0.038138274 0.0088087255 0.11136911 0.09867926 0.061583497 -0.2485509
0.08030094 -0.21262412 -0.12488592 0.10387459 -0.013129684 0.13159736 0.08095966 0.08065084
-0.062995195 0.121007234 -0.17706527 -0.034485873 0.076816216 0.09407654 -0.0900229 0.41158178
0.0655413 0.12458315 -0.07725805 -0.21295579 0.08095697 -0.30071384 0.14196338 -0.24510565
0.024950394 -0.2049055 0.079312846 -0.040924884 -0.1348287 0.09118836 0.07878976 -0.10267291
0.10913149 0.110427074 0.12717927 0.011043904 0.07030669 0.13266228 0.07068693 0.120311044
-0.09648457 0.12864691 0.23520535 0.060224295 0.08055448 0.19269858 0.13689373 0.15564393
-0.080315754 0.094407566 0.12061922 0.0816426 0.08235719 0.06512067 -0.111213654 -0.08346794
-0.010975516 -0.16411583 -0.103762925 0.044684187 0.10913099 0.06389832 0.048941478 -0.07988219
0.09933895 -0.0004887784 0.12441488 -0.03511974 -0.059412055 0.11429011 0.10509069 -0.048677757
-0.1444349 0.1601931 -0.2561573 -0.028362429 -0.012646611 0.106546775 0.0043752696 0.25628373
0.052714437 0.11190195 -0.07678044 -0.100479156 0.05634612 0.059357934 0.21901627 -0.09258098
0.20885035 -0.018621821 0.094666965 0.11622653 -0.028122079 0.10088307 0.09720989 0.003691737
0.11481554 -0.08013389 0.0738687 0.005701487 -0.111207314 0.17323488 0.12617312 -0.012141925
-0.093188986 0.12309474 0.21912502 0.11424431 0.14902104 0.04401375 -0.30684328 0.20105445
-0.17035095 0.080055274 0.12546895 0.08669744 0.057038322 0.10632552 -0.20831713 -0.24844062
-0.08509558 0.00962603 -0.138509 -0.07519157 0.14896362 0.09078338 -0.14388882 -0.07883981
0.11366895 -0.00046102476 0.056563564 0.033356152 0.041563664 0.07896912 0.097844966 -0.026600491
0.07334166 0.07993359 -0.181009 0.22712174 -0.0317283 0.11069038 -0.0032188238 0.1882119
0.118212365 0.08203346 -0.08604107 -0.22349943 0.13363501 0.07904069 -0.052019883 -0.09006399
-0.0061540175 -0.08891877 0.08852946 0.07583642 -0.23287605 0.11765036 0.088717565 0.047188107
0.09567706 -0.01638311 0.15921214 0.0745724 -0.17567389 0.14203686 0.09090205 0.13785622
-0.183666 0.058661323 0.2644794 0.12872423 -0.1593492 0.07354735 0.1063032 -0.084584475
-0.02798957 0.13641723 0.06351929 0.08547425 0.12031175 0.084690064 -0.02455128 -0.11581271
0.014582814 0.024166819 -0.22734155 0.014229579 0.053282786 0.08936859 0.1430784 -0.13469806
0.093091145 -0.0025271098 0.055637598 -0.039963745 -0.043115895 0.06503703 0.105502605 0.006342912
0.05915219 0.035168592 -0.28960118 -0.12858161 -0.0032084847 0.12895258 0.034109253 0.2297963
0.1171203 0.09400871 -0.040212665 -0.06700885 0.088312894 -0.114703156 -0.06609746 -0.031686388
-0.07745787 -0.09910494 0.0924457 -0.0047275205 -0.049462344 0.12868415 0.12022989 -0.007520261

output.bias f4 [4]
00000000: c0a4 043f 668c c23e 017a e23e d330 db3e
0.5181389 0.3799774 0.44233707 0.42810687
